LMRL-RL/TD3-GRU/model/baseline_model/best_models/TD3_velodyne_critic.pth (torch, 284161 bytes, 10 tensors)

SA.0.weight f4 [384, 26]
000000 35 73 cf bc 3e 7d e6 bd 89 ff be 3c b7 97 8e be
       -0.02532349 -0.11254357 0.023315208 -0.27850124
000010 05 bd 88 be 5b 33 2c be 16 df 8a bd 10 79 c9 3d
       -0.2670671 -0.16816466 -0.067808315 0.09837544
000020 2a d9 48 be f5 2b 63 be 69 31 44 be 03 e2 b5 bd
       -0.19614092 -0.22184737 -0.19159473 -0.08880999
000030 b0 eb ba bd 26 ba 66 be 7f 1f 09 be bd 05 f6 bd
       -0.09126985 -0.22531947 -0.13390921 -0.12012813
000040 15 d5 7e be 5e bb 27 be af 0c 91 be 81 b8 8d be
       -0.24885972 -0.16380069 -0.2832999 -0.27679828
000050 35 58 60 3d 79 a4 b2 3d 50 71 ef 3d b6 78 55 bd
       0.05477162 0.08722777 0.116915345 -0.052117072
000060 a1 6c d2 bd 6a 65 66 3d 1d 0c 5e 3e 6c a0 49 be
       -0.102746256 0.05624906 0.21684308 -0.19690102
000070 50 fa 00 bf 68 f4 c7 be 61 64 86 be ac db a6 be
       -0.50381947 -0.39053655 -0.26248458 -0.3258947
000080 f7 88 ab be 05 8e ea be b6 9a fc be ad 3c 14 bf
       -0.33502933 -0.45811477 -0.49336785 -0.57905084
000090 10 5d 3b bf ba 02 45 3c fe 6d ed 3d 61 8c cf 3c
       -0.7318888 0.012024576 0.11593245 0.025335493
0000a0 2a 88 c1 bd 9b f0 8a be d5 f9 f3 3d 96 85 c9 bd
       -0.09449799 -0.27136692 0.11912886 -0.098399326
0000b0 c5 1f 6d bd c3 51 ae bc 44 00 77 be 09 fe 8a be
       -0.057891626 -0.021279221 -0.24121195 -0.27146938
0000c0 8d 0d eb 3e 68 27 d8 3e d5 e4 be 3e 70 e2 12 be
       0.45908776 0.42217565 0.3728396 -0.14344192
0000d0 93 c3 aa 3e 79 fd b4 3e 96 24 a8 3e ce f7 a8 3e
       0.33352336 0.35349634 0.32840413 0.3300156
0000e0 65 41 a3 3e ed 50 b0 3d f9 e4 58 be 39 a2 f9 be
       0.3188583 0.08609185 -0.21181096 -0.4875658
0000f0 64 02 21 bf 52 53 76 bf cc b9 9e bf e1 e1 b9 bf
       -0.6289427 -0.96220887 -1.2400451 -1.4522058
000100 96 5b ac bf 12 6f 82 bf 21 b6 5e bf ce 2f 51 bf
       -1.346545 -1.0190146 -0.86996657 -0.8171357
000110 9b 51 63 bf 27 1c 0b bf bd e0 60 be b2 51 19 be
       -0.88796395 -0.5433983 -0.21960731 -0.1497257
000120 83 2e 84 3f 6c 37 06 c0 42 c7 77 3e b8 7e af 3c
       1.0326694 -2.0971327 0.24197105 0.021422729
000130 e5 f2 9e 3e 9c cd 62 3d 84 c1 3a be 2b ad 7d bd
       0.3104469 0.055371866 -0.18237883 -0.061932724
000140 43 fb 2d be 82 2d 0f be dd dd 8f 3d 59 1e 0e be
       -0.1699038 -0.13982204 0.07024739 -0.13878764
000150 f8 2e 16 3d 9b 1f 8e 3d 64 85 06 be 44 5d a6 be
       0.036665887 0.06939622 -0.13136822 -0.3249303
000160 e4 b8 57 be 9d 2b 25 bf ce 2a 8f bf 21 dd 8a bf
       -0.21066624 -0.64519674 -1.1184938 -1.0848733
000170 e7 d1 df be 8b 20 c1 be 17 17 4e be 5b 8b 82 bd
       -0.4371483 -0.3772014 -0.20125996 -0.06374236
000180 ae ff 88 3d 2b 42 d4 bd 50 89 f2 3c 0b 4c dc bc
       0.06689392 -0.10364183 0.029606491 -0.026891729
000190 a1 5a e7 3e 13 ae 81 be 94 4d a7 3e 45 fb 54 be
       0.45186332 -0.2532812 0.32676375 -0.20798977
0001a0 c7 63 f2 3c bd d5 88 3c 4d da 4a 3d e4 99 a6 3e
       0.029588593 0.01670348 0.049524594 0.32539284
0001b0 46 65 65 3e 7c 65 8b 3e e6 ef d5 bb 9d d2 59 3d
       0.22401914 0.27225864 -0.0065288423 0.053179372
0001c0 a0 f6 f4 3d bc e4 df bd 8c 5c 7b bf 88 dc 2e c0
       0.119611025 -0.109322995 -0.9818809 -2.7322102
0001d0 a4 76 01 3f 19 1b 90 3b a9 e0 87 3e 7f 7b 6a 3e
       0.50571656 0.0043977615 0.2653859 0.22898673
0001e0 b9 d2 53 bd 05 8c 15 bf d9 4d ca bf 62 32 a2 3d
       -0.051714633 -0.5841678 -1.5805007 0.07919766
0001f0 13 5e 97 bd f4 63 c6 3f 4a 26 37 3f f1 31 9c 3e
       -0.0739099 1.5499253 0.715428 0.30506852
000200 4b 87 02 3f 4e 67 a3 3d 93 36 91 be 02 eb 78 bd
       0.5098769 0.07978688 -0.2836195 -0.060770996
000210 9d 7d ae be 48 ac a3 be 76 27 fc bc 6c 3d 8e bc
       -0.3408021 -0.31967378 -0.030780535 -0.017363273
000220 c5 ab 24 be dc 3c 49 be 5e 02 8e be 39 22 8c bd
       -0.1608115 -0.19652122 -0.2773618 -0.06842465
000230 08 07 9f be 75 4b 4f be 5a 6a 10 be 6b 24 56 be
       -0.31060052 -0.20243628 -0.1410307 -0.2091233
000240 bf a6 56 3e c0 97 19 3d 5e 0d 83 be 41 1c 3c 3d
       0.20962046 0.037498236 -0.25596136 0.045925383
000250 03 24 4b be 09 af 72 3d 1c eb c1 be af c0 04 3e
       -0.19837956 0.059248958 -0.37874687 0.12964128
000260 72 48 09 be 97 26 65 3e 3c 29 33 be 70 1d d4 bd
       -0.13406542 0.22378002 -0.17496198 -0.10357177
000270 ca ce 90 bc 48 b9 e8 bc 68 be b6 3d 1f 8d 03 3e
       -0.01767673 -0.028408661 0.08923036 0.12846802
000280 42 e9 ce bc 00 17 31 3b 02 e0 f0 3c 62 38 30 3d
       -0.02525771 0.0027021766 0.02940369 0.04302252
000290 c8 93 c4 bd 3e 80 a0 be fc 4e 4c 3d f7 99 72 bd
       -0.095984995 -0.3134784 0.049880013 -0.059228864
0002a0 6a 70 41 3d b4 60 e0 bc 50 6e d7 3d 23 79 20 3e
       0.047226347 -0.027389862 0.10519087 0.1567121
0002b0 97 7a 81 3e 7e ab ff 3d e3 a0 e7 bc 99 0a ba bd
       0.2528884 0.124838814 -0.028274959 -0.090840526
0002c0 14 04 35 c0 50 30 f8 bc 10 d0 e9 3e 27 a1 fa bc
       -2.828374 -0.030296475 0.45666552 -0.030594422
0002d0 f2 70 cc 3e 48 33 c7 bc f2 29 8c bc 08 ba 85 3d
       0.3992992 -0.024316445 -0.017109845 0.06529623
0002e0 6b e9 1f be 88 d1 05 be 5a 3b 61 bd 55 41 aa bd
       -0.15616386 -0.13068211 -0.054988243 -0.08313242
0002f0 5c c6 42 bd 2d b9 4c 3d 5a 99 14 bf b9 da 59 bf
       -0.04755245 0.049981285 -0.58046496 -0.8509937
000300 56 55 05 bf bb 35 75 bd ad a2 00 be ac 20 44 be
       -0.5208334 -0.059865694 -0.12562056 -0.19153088
000310 52 65 3e 3d 0e 20 50 be a4 58 13 be 90 4e 9a bd
       0.046483345 -0.20324728 -0.14389282 -0.07534516
000320 13 37 09 bc 2a db 2b be 7b db 3a bd 07 94 12 be
       -0.008374947 -0.16782823 -0.04561947 -0.1431428
000330 c3 5e a8 3e 98 4c b8 3d dd 71 d3 3e a9 1c 34 3e
       0.32884797 0.08998984 0.41297808 0.17589058
000340 4b d7 87 be 47 69 e6 bd 8b f6 f8 bd 72 5f 7c 3d
       -0.26531443 -0.11250549 -0.12156399 0.06161446
000350 ef 9b 02 3f 24 9f 52 bf 90 71 5f bf d9 a9 a3 bf
       0.51019186 -0.8227408 -0.8728266 -1.2786208
000360 e2 14 5a bf c7 26 8a bf 68 b6 f7 3e 4a c2 4c 3e
       -0.85188115 -1.0793084 0.48381352 0.1999599
000370 7a aa a2 bd 63 7f 86 be f0 cb 01 bf 1f 6c c0 be
       -0.07942672 -0.26269063 -0.5070181 -0.3758249
000380 28 dc 4c be de 22 1e 3d 1e 4f e0 3c 4e c2 07 be
       -0.20005858 0.03860747 0.027381476 -0.13257715
000390 f6 4e ca bd b8 df a2 bf 7f 11 54 3f bf 95 6b 3e
       -0.09878342 -1.2724524 0.82839197 0.23006342
0003a0 f2 c6 44 bf a1 71 df 3f 64 94 42 be d9 3c 02 bf
       -0.76866066 1.7456552 -0.19001919 -0.50874096
0003b0 72 07 09 bf 5a e6 30 be eb b4 1f bf 59 44 4e bf
       -0.53526986 -0.17275372 -0.62385434 -0.8057304
0003c0 15 67 37 bf 58 e0 62 bf 4e 96 26 bf 0f 9a 00 3d
       -0.71641666 -0.8862357 -0.65073097 0.03139692
0003d0 a1 79 c1 bd 18 48 12 be 8d 03 86 be 8c 17 b3 be
       -0.09447027 -0.14285314 -0.26174584 -0.34978902
0003e0 b2 04 d7 be 60 3e 70 be 75 39 90 be 71 9a 34 be
       -0.4199577 -0.23461294 -0.28168836 -0.1763704
0003f0 8a 7e 4c be 15 f4 c3 be 6e 72 c4 bd ad d6 3b bf
       -0.19970146 -0.38272157 -0.09592138 -0.73374444

SA.0.bias f4 [384]
000000 56 a0 80 bd 2f ad 30 3c bf 20 65 3f 63 3f f6 3d
       -0.06280582 0.010783478 0.8950309 0.12023809
000010 69 33 b4 3f 6e ad 9d be d5 5d 54 40 82 6a 3a 3c
       1.4078189 -0.3079638 3.318227 0.0113779325
000020 fe 48 a9 3f 3b 0d 5c 3f 59 40 36 3d 80 4b 6b 40
       1.32254 0.8595769 0.04449496 3.6764832
000030 6b db 03 bf 12 9c 32 3d 1b 7b 27 3e fd 6f 37 3f
       -0.5150668 0.04360587 0.16355555 0.71655256
000040 49 3c 84 40 ee ea 92 3e 7e d1 07 40 59 99 78 3e
       4.132359 0.28694862 2.1221614 0.24277247
000050 3b 92 b7 3d 93 49 59 3d a3 5c 71 3e c5 64 c8 be
       0.08963438 0.05304868 0.23570494 -0.3913938
000060 ce fe 52 40 c1 8b 40 be 21 49 83 be 4f 0c 42 3f
       3.296802 -0.18803312 -0.2564173 0.7580003
000070 30 9d 37 40 74 59 18 3e 31 81 0d 40 4f 17 c6 3e
       2.868969 0.14877874 2.2110102 0.38689658
000080 47 23 76 3d 62 8d 3a bd 86 c4 8a bd 38 95 61 bd
       0.060092237 -0.04554499 -0.06775765 -0.055073947
000090 75 3e 81 3e a6 8b 83 40 3d a3 58 bd ad 23 66 bf
       0.25242963 4.110797 -0.05289005 -0.89898187
0000a0 e5 a7 18 be 63 a7 c2 be 70 e4 d6 be 0a 52 94 3f
       -0.14907797 -0.3801833 -0.4197116 1.1587536
0000b0 10 13 15 bf db dd 18 40 ca cd 17 bf 4f 93 85 be
       -0.5823221 2.388541 -0.59298384 -0.2608895
0000c0 9c aa e9 bd 95 87 2b be d5 11 2a bf 47 95 2a 40
       -0.11409494 -0.16750939 -0.6643346 2.6653612
0000d0 d1 5b 53 40 3d 64 e4 3f 35 0f 12 3e ee e9 a5 bd
       3.302479 1.784309 0.14263614 -0.08101259
0000e0 1f 08 67 40 78 66 81 3e 8e 9b 75 3d 3f 2b d2 3e
       3.6098707 0.2527349 0.0599628 0.4104862
0000f0 67 1d 55 40 a6 32 85 be dc 8a 71 3e ae 2f 82 be
       3.3299196 -0.26015204 0.23588127 -0.25427002
000100 3f b3 48 3f d0 33 93 bd 43 a6 80 3e b3 76 a1 c0
       0.7839851 -0.07187617 0.25126848 -5.0457397
000110 15 a7 a3 3f 0b 8c cd 3d 63 4b 3a bb bc 4e a6 3e
       1.2785364 0.10036477 -0.0028426282 0.32481945
000120 19 a3 a7 3f 9e 7d 6e be 07 79 9d 3f 0b d2 0d 3f
       1.3096648 -0.23290107 1.230256 0.55398625
000130 e7 04 6c 3e 1d c7 01 c0 65 be 9a be 30 2c e4 3f
       0.23048745 -2.027778 -0.30223384 1.7825985
000140 ac 18 74 be 5a b6 bb bf b9 90 50 3e 69 d2 a7 3e
       -0.23837537 -1.4665024 0.20367707 0.32777718
000150 01 02 4e be 2e fe 89 c0 e1 df e0 3f c6 5b c2 3e
       -0.20117952 -4.312278 1.7568322 0.37960643
000160 a4 d6 b3 be 76 dc 0f 40 6d c8 2c 40 c9 da 33 3f
       -0.35124695 2.2478309 2.699733 0.70255715
000170 25 65 c2 3f 9e 9f bd 3d 06 e5 0d 3e f5 85 18 be
       1.5187117 0.0925896 0.13856897 -0.1489485
000180 c2 00 14 3f 0a e1 b6 3e 69 ac 69 40 e7 17 90 bc
       0.57813656 0.35718566 3.651148 -0.017589523
000190 15 d9 f9 3e 43 c5 06 3f ac 51 d3 bb 56 e6 f9 3d
       0.48798433 0.5264475 -0.006448945 0.12202136
0001a0 6b 84 26 3f b1 70 1e bc ed b8 c5 be 4b ae 21 c0
       0.65045804 -0.009670422 -0.3861765 -2.526263
0001b0 a9 ce f6 3e 46 28 a6 3f ae 7f 57 3f c8 68 f3 3e
       0.48204544 1.298104 0.841792 0.4754088
0001c0 82 b3 70 3f 2c 85 01 40 a7 42 d2 3e 27 a5 2a 3e
       0.9402391 2.0237532 0.41066477 0.16664563
0001d0 a2 02 ff bd ad 7b 85 c0 75 a6 9b 3e 5d 98 b7 3f
       -0.12451674 -4.171347 0.30400434 1.4343373
0001e0 59 1d 05 3e 9e 36 b0 3e 82 78 4a 3d 7a 2e b3 3f
       0.12999476 0.3441667 0.04943133 1.3998559
0001f0 c9 5d a8 3f 3a 22 d8 3d d6 ef 4c 40 34 9c e8 3d
       1.3153621 0.10553403 3.2021384 0.113579184
000200 e9 70 78 3e eb e7 0a 3f 2d 15 9c 3e 48 a7 8c be
       0.24261822 0.5426013 0.30484906 -0.27471375
000210 8f cc 62 bf 2b 7a 6e c0 ef 8d 1f 3e 9a c0 98 3e
       -0.8859338 -3.7262065 0.15581487 0.29834443
000220 37 3f 0c 3f f4 d2 ac 3f 11 ae a9 bf 5f 94 4e 3e
       0.5478396 1.3501878 -1.3256246 0.20173787
000230 ed 88 cb bd 4f a0 a6 3b db 7a 3d 3d df 0d b8 3f
       -0.09938226 0.0050850282 0.046259742 1.4379233
000240 42 84 03 3e 38 67 81 3e af f7 30 3e 62 46 cc 3f
       0.12843421 0.25274062 0.17281984 1.5958979
000250 5d b5 a3 bf 90 a1 0f be c4 98 0f 3e ce 78 b7 3d
       -1.2789723 -0.14026475 0.14023119 0.089585885
000260 b0 ef bb 3e b8 0d 9f 3f ac 56 c1 bc ba 25 11 3f
       0.36706305 1.2426062 -0.023600899 0.5669819
000270 c4 53 9c bd 0a db f0 3f fb 4b 06 3e 16 ba 09 40
       -0.076331645 1.8816845 0.13114922 2.1519828
000280 49 e2 49 3f aa 66 5f 3e ba f4 64 bf 1c 65 cd bd
       0.7886091 0.21816507 -0.89435923 -0.10029051
000290 81 23 ac 3f 4a b5 63 40 bd 1a a5 3f 92 d0 3e be
       1.3448335 3.55794 1.2898785 -0.18634251
0002a0 e9 50 29 bf de 81 cd 3f 57 06 ad 3e c1 aa 39 40
       -0.66139084 1.6055257 0.337939 2.901047
0002b0 83 b7 18 3e dc 88 09 40 ad 16 bb be 40 eb a0 bd
       0.14913754 2.1489782 -0.36540738 -0.078573704
0002c0 36 df d1 3e d9 f1 09 40 35 22 4e bd f3 9f ae 40
       0.4099061 2.1553862 -0.05032559 5.457025
0002d0 2d c1 68 3e 7d 22 e8 3e 9f 1b bc bd 6b 04 bb 3d
       0.2272994 0.45338812 -0.09184956 0.09131702
0002e0 3f 94 ed 3f ff ca ba 3e e0 03 e3 3d 4a 49 05 3e
       1.8560866 0.36483 0.110847235 0.13016239
0002f0 38 8c cd 3e 67 0e 81 3e 9a dd b9 3d 20 2b 8d bd
       0.4014604 0.252063 0.0907547 -0.06892991
000300 b4 a7 ba 40 94 0a a3 3e 5c 36 f4 3d 92 57 94 40
       5.8329716 0.31844008 0.11924431 4.6356897
000310 ae eb 3b 40 5c 6c 41 3e df dc 1b 40 5d df 5e 40
       2.9362597 0.18888992 2.435356 3.482383
000320 85 ee 3f c0 23 cd e0 3e a8 86 3f 3f 70 70 53 40
       -2.998933 0.43906507 0.74814844 3.3037376
000330 2c e8 37 3f 6d de 9f 3f ba 59 df 3f 83 c2 3f bd
       0.7183864 1.2489754 1.7449257 -0.04681636
000340 c9 a0 eb 3d c7 ab 61 3e 17 03 82 3f 63 fb 9f bd
       0.11505277 0.22038184 1.0157193 -0.0781162
000350 89 c7 32 40 32 a5 c5 3f d0 5c 66 3f de d8 72 3f
       2.7934287 1.5441039 0.8998537 0.94862163
000360 e6 08 55 3d 97 a6 18 3f de ee a3 3f 5c 74 30 3f
       0.05201044 0.59629196 1.2807271 0.6892755
000370 d2 51 0d 3e a1 ee cb 3e e9 f0 82 40 cb da b2 3d
       0.13800743 0.39830497 4.091908 0.08733138
000380 0e 9b a8 3e ba fb 22 3f d5 e4 ae 3d 0d 9c 47 bc
       0.32930797 0.63665354 0.0853974 -0.0121832015
000390 6d b4 84 40 2c a8 d8 bf 78 4d ff 3d f2 4a cd bd
       4.1470246 -1.6926322 0.12465948 -0.1002406
0003a0 cf 13 ee bd 48 11 0d bf 9b 87 a9 3d f9 cc c2 3e
       -0.11624872 -0.55104494 0.08277818 0.38047007
0003b0 97 76 5c 40 14 64 2d 3e 99 f4 5a be ef b1 e1 3f
       3.4447381 0.16932708 -0.21382369 1.7632426
0003c0 e9 98 88 c0 46 e6 b4 bc fc 95 3e 3f 36 bb 7d 40
       -4.268666 -0.02208246 0.7444761 3.9645514
0003d0 85 77 09 3f d1 ba 9b be 6d d4 f5 3e 77 07 c9 bd
       0.53698 -0.30415967 0.4801363 -0.09815877
0003e0 45 ee b6 bd 9f 15 64 3c 99 b0 bb 3f 9e f3 3b 40
       -0.08932165 0.0139211705 1.4663268 2.9367442
0003f0 dc ed 3a 40 a6 21 a1 be fc 57 39 3e dc 8d 45 3e
       2.9207678 -0.31470984 0.1809997 0.19292396

SA.2.weight f4 [64, 384]
000000 12 c8 0b bd 5e 19 bd 3e 5f d7 ea 3d 80 cc d1 bd
       -0.03412635 0.36933416 0.1146686 -0.102440834
000010 f9 56 c5 be 34 87 81 bc 72 34 fd 3d fb 7f 03 bd
       -0.38542917 -0.01581154 0.12363519 -0.032104474
000020 f5 a0 13 3d b9 9a e7 3d 33 b9 6d 3c a4 48 04 be
       0.036042172 0.11308808 0.014509487 -0.12918335
000030 e7 a8 66 3d f2 e1 7a 3d 37 90 11 3e 39 c2 2c 3e
       0.05631342 0.061250634 0.1421517 0.16870965
000040 91 bf 15 be 1e 75 9c bc 0d 79 07 3e f5 10 3d bd
       -0.14623858 -0.019098815 0.13229771 -0.04615875
000050 f6 26 f0 3e c4 3f 61 bd cf a4 83 bd 9b a3 87 3e
       0.46904725 -0.054992452 -0.06427919 0.2649201
000060 0d eb 27 be c7 2b 07 bd 3e bc b2 b8 5a df 9d bd
       -0.16398259 -0.033000734 -8.522764e-05 -0.077086166
000070 ed 46 5c be dc 29 2b bd ad 5d 81 bd cf 02 a5 3c
       -0.21511431 -0.041787967 -0.06316695 0.02014294
000080 86 37 1b 3e 36 24 cb bc 6f 22 38 bd 89 f8 43 bd
       0.151579 -0.02479754 -0.044954713 -0.047844443
000090 ea 41 45 bc 96 74 de be ff 11 ce 3c 22 1b f1 bd
       -0.012039641 -0.43448323 0.025155066 -0.11772753
0000a0 3f b6 d8 3d 6d 25 37 be 11 11 f0 bd 12 57 44 3e
       0.10581636 -0.1788537 -0.11722005 0.1917384
0000b0 fb 0b 99 be 8f e7 b3 3d 17 13 06 bd d0 bf 2d be
       -0.29891953 0.08784401 -0.03273305 -0.16967702
0000c0 86 d7 48 3d 46 1c 44 bc 64 74 97 bd f0 4a 8a be
       0.049033664 -0.011969632 -0.073952466 -0.27010298
0000d0 39 1e 76 3e 59 93 e1 bc 37 0b c6 3d dd 73 19 bd
       0.24034967 -0.027536081 0.09670108 -0.03746401
0000e0 e2 70 08 be 48 70 89 3c 36 60 59 3d 92 b6 df 3e
       -0.13324311 0.016777173 0.05307027 0.43693978
0000f0 09 fd e4 be df f6 84 3c ef 6a e2 3e 02 d8 9d bd
       -0.447243 0.016230999 0.4422221 -0.07707216
000100 bd 57 b4 3d 41 0b 72 be 0c dc af 3d 6c 9c a3 bd
       0.08805797 -0.23637106 0.085868925 -0.079888195
000110 79 94 40 be aa e0 da bd 83 fd 86 3d bc 72 0f 3e
       -0.18806638 -0.106873825 0.06591322 0.14008611
000120 1e d9 fc 3d 56 7b 2b 3e 5a 59 a9 bb b4 d0 1f 3d
       0.12346099 0.16746268 -0.0051681222 0.039017394
000130 5a 12 32 be e5 9b 53 bd 08 9c b0 3d 99 24 41 be
       -0.17389813 -0.051662344 0.086235106 -0.18861617
000140 6e ac 71 3d d0 b6 da be 40 ae ed bd db e9 20 bd
       0.059002332 -0.427176 -0.11605501 -0.039285522
000150 84 1e f8 3b 44 78 af be c2 8a 9b 3e d7 16 a5 3d
       0.007571997 -0.34271443 0.303793 0.08060997
000160 50 29 32 bd 80 e5 a4 3e b5 e9 37 be 92 a6 8d 3d
       -0.04349643 0.32206345 -0.17960246 0.069165364
000170 d2 93 9f 3e 0f 4e 95 bd 4c 20 14 be 83 f5 65 3e
       0.31167465 -0.07290279 -0.14465445 0.22456937
000180 fa 32 26 3e 27 8a 01 3e d0 17 b7 be de 62 19 3d
       0.16230384 0.12650357 -0.35760355 0.037447803
000190 c3 03 19 3d 0f 52 f7 3d fa 3b 7a 3e 51 fc ee 3c
       0.037357103 0.12076198 0.24436942 0.029173048
0001a0 54 14 ce ba 65 22 de 3d 6f a6 a1 bc 97 d6 ff 3d
       -0.0015722611 0.10846404 -0.019732682 0.12492102
0001b0 a1 56 71 3e 25 55 5d 3e 35 82 c6 bc b0 20 3d 3e
       0.23568203 0.21614511 -0.02423201 0.184695
0001c0 fd 66 8d 3e 36 42 11 be 4d ff d2 3c ab fd 16 3e
       0.27617636 -0.14185414 0.025756503 0.14745204
0001d0 86 cf 4e 3c 98 89 9e bd a6 f1 3a 3c 39 2a 4e bc
       0.01262272 -0.07741088 0.011410153 -0.012583309
0001e0 61 96 03 3c 02 77 e1 3c a3 9e 6e 3c 02 b1 6c bd
       0.008031459 0.027522568 0.014564189 -0.057785995
0001f0 0b 2f bd bc aa 6f 2f 3e 85 93 07 bf 7a db 67 3e
       -0.02309372 0.1713244 -0.5295947 0.22642317
000200 61 b8 24 3f a1 5b 4d 3e 53 39 59 3d 6e 86 53 bd
       0.6434384 0.20054485 0.053033184 -0.051641874
000210 2b 4c d7 be a8 1d da be ce b7 f3 3c 42 24 0f 3e
       -0.420503 -0.4260075 0.02975073 0.13978675
000220 ce 20 92 3e 75 c9 53 3c da c7 ae be 2f f0 22 be
       0.28540653 0.012926449 -0.3413685 -0.15911935
000230 77 8e 05 bc 8a d6 9e be e3 36 46 3e 57 2a 02 3e
       -0.008151642 -0.31023055 0.19356875 0.12711464
000240 d9 37 cf bd 5b 3b 0b 3e 23 3c c8 bd 75 d1 d8 3d
       -0.10118074 0.13596861 -0.09777095 0.10586826
000250 9c 14 6a bd 14 bb 86 bd a1 80 cd 3e 5d a7 f2 bb
       -0.05714856 -0.06578651 0.401372 -0.007405205
000260 b6 35 e9 bd a1 98 82 3e a4 1e 25 3c 03 44 72 bc
       -0.11387198 0.25507072 0.010078106 -0.014786723
000270 26 d3 b7 bb f6 f5 a9 3d 0b bd 25 be ae 9f 98 be
       -0.0056098877 0.082988665 -0.16185395 -0.29809326
000280 a2 a4 33 3e 03 3d 0e 3e d6 7a 5b be ff 16 1d 3d
       0.17543271 0.13890462 -0.21433577 0.03835201
000290 02 86 9f 3e 29 fb 51 be d7 51 19 be 6e cd 4a be
       0.31156927 -0.20505966 -0.14972626 -0.19804928
0002a0 e2 83 52 be 73 6e 8c bb bc 3c 39 be a7 59 e8 bd
       -0.20558122 -0.0042856275 -0.18089575 -0.11345225
0002b0 ec 80 2d be 7a 66 f5 bd 38 01 6a 3c 93 80 2b bd
       -0.16943711 -0.119824365 0.014282517 -0.041870665
0002c0 c7 3f ea bd c2 9e 62 3d b4 2c 9b 3e d8 c5 0e bf
       -0.11437946 0.055327184 0.30307543 -0.55770636
0002d0 d1 f7 cd 3c 7c 62 1c bd 1e b5 e8 bc 26 9c 3e 3c
       0.025142582 -0.03817986 -0.028406676 0.011633908
0002e0 52 1a 51 bd b7 6d 90 3e 04 9f 39 bd c4 31 a0 bd
       -0.05105049 0.28208706 -0.045317665 -0.07821992
0002f0 34 5e b5 3e f6 3c 92 3e ba 0f 2d bd 40 fc 1b 3f
       0.35423434 0.28562135 -0.042251326 0.6093178
000300 2e 5b 3d be a7 4b 08 3d 60 a8 a1 3d ae d5 b9 be
       -0.18491814 0.033275273 0.07893443 -0.36295837
000310 b7 fa 89 be f0 c2 ea 3c f2 46 e9 bd 49 d2 88 3d
       -0.26949093 0.028657407 -0.11390485 0.06680734
000320 64 1a a0 be 5f a1 fe bd 21 c3 df 3d 2e 23 b7 be
       -0.31270134 -0.12433123 0.1092589 -0.35769027
000330 5b d4 2d be 60 64 36 be 32 51 62 3e f9 28 40 3d
       -0.16975538 -0.17811728 0.22101286 0.046914075
000340 2b ed e1 3d 31 6b cb 3c 77 7d 7b be ec db 84 bc
       0.11031564 0.024831386 -0.2455958 -0.016218148
000350 fe f2 42 3e e1 9d 43 3e b9 1c 8f 3e a2 ea 83 bc
       0.19038007 0.19103195 0.279516 -0.016103093
000360 c0 f3 44 be 49 33 85 3d f8 32 53 be 0a 6c a8 bd
       -0.19233608 0.065039225 -0.20624912 -0.08223732
000370 ae 92 04 3c 33 fb 2f 3e 5d d2 47 be 9d b9 a2 3c
       0.008091612 0.17185669 -0.19513841 0.019863898
000380 7b d9 37 3c 29 db 63 bd 96 3b 87 ba e6 3c 95 3d
       0.011221285 -0.05562893 -0.0010317441 0.07287006
000390 93 57 f3 bd 82 65 20 3e ef 2f 11 3d d7 5c 89 3c
       -0.11881938 0.15663722 0.035446104 0.016767902
0003a0 e5 b6 66 3c 86 bf da bd a0 bf e9 bd d4 a7 83 be
       0.014081691 -0.106810614 -0.11413503 -0.2571398
0003b0 06 ca 17 bd 59 d5 8a 3d d2 c7 ec 3d 9c 2b 32 3e
       -0.0370579 0.06778974 0.1156155 0.17399448
0003c0 27 39 21 be 8d 3e d6 bc c8 ea e4 3d 2c be 22 be
       -0.15744458 -0.026152873 0.111775935 -0.15892857
0003d0 6b d0 b1 3e d0 e7 1c be c3 29 f3 3d e9 2e e8 ba
       0.34729323 -0.15322804 0.118732 -0.0017714176
0003e0 33 c9 29 3e 03 2a 01 bd 69 85 7c 3e d0 1f d3 bc
       0.16580658 -0.031534206 0.24660267 -0.025772005
0003f0 ad 7d ea 3d d4 30 20 bd f4 15 0f 3e 69 9a 82 3d
       0.11449752 -0.039109066 0.13973218 0.06377108

SA.2.bias f4 [64]
000000 2c 56 56 bf a6 91 97 bf 05 9d 82 bd 34 c0 4b 40
       -0.8372524 -1.1841323 -0.06377605 3.1836061
000010 27 d1 8e be 92 2d 40 bd 5a 1a 52 bd 6b 06 58 c0
       -0.27893946 -0.04691846 -0.051294662 -3.3753917
000020 48 9d 13 bd 8f bb b5 bc 59 96 f2 bd 9d fe 8f bd
       -0.036038667 -0.022184161 -0.11845083 -0.070309855
000030 e1 a5 19 3e 5b 21 03 bd b1 24 42 3e 7b 6a c5 bd
       0.15004684 -0.032014232 0.18959309 -0.0963945
000040 18 79 7f bd d1 8a 90 40 14 1a 8c bd 33 bc 28 3e
       -0.062371343 4.5169454 -0.068409115 0.16478042
000050 1e 83 87 bf 6c 0f 7e 3e 8c de 83 bf c1 3d a0 bd
       -1.0586889 0.2481057 -1.0302291 -0.078242786
000060 e7 84 20 3e ad 73 47 bd 39 d8 78 bd 8f f9 2d bd
       0.15675698 -0.0486943 -0.06075308 -0.042474326
000070 58 78 15 40 e6 10 c0 bc 6a 1f 20 3c e5 9b 88 bd
       2.3354702 -0.023445558 0.009773115 -0.066703595
000080 69 70 5e bd be 20 1b bd e1 e5 0d be fe 3f 3b 40
       -0.05430642 -0.037873022 -0.13857223 2.9257808
000090 09 4a 20 3d c6 45 f9 bc 1c 57 51 bd 6f 41 17 3c
       0.039133105 -0.030428778 -0.051108465 0.009231909
0000a0 30 86 a4 bd 27 7c b2 3f 23 54 00 bd e9 fc 67 bd
       -0.08033407 1.3944138 -0.03133024 -0.05663768
0000b0 71 6a 89 bd 68 95 c2 3c d4 26 ef bd 9a bf 70 bd
       -0.06709755 0.023752883 -0.11677328 -0.058776475
0000c0 65 6d ae 3b e7 37 94 bd f6 7c 00 bd 36 96 78 3e
       0.0053230994 -0.07237225 -0.031369172 0.24276051
0000d0 22 c8 9a 3f bf fd e3 be 85 14 20 3f d5 42 5c bd
       1.2092326 -0.4452953 0.6253131 -0.053774673
0000e0 df bb 22 3b fa 75 30 3e cf 95 b3 bd b0 a1 93 40
       0.0024831218 0.17232504 -0.08768808 4.6134872
0000f0 e0 d3 b9 bd 41 47 5a 3d 1d e3 4e bf c2 d9 36 40
       -0.09073615 0.05329061 -0.808153 2.857041

SA.4.weight f4 [1, 64]
000000 d7 3a a7 bc 10 b5 91 be 64 3c a3 3c 56 eb 84 3e
       -0.0204138 -0.28458452 0.019926257 0.25960797
000010 ad 34 19 be 14 84 74 bd c5 10 a2 3d f2 b9 23 bf
       -0.149615 -0.059696272 0.07913355 -0.63955605
000020 f8 16 00 3d 7f 6f b0 bc c2 b9 85 3c c8 4e 2e bd
       0.031271905 -0.02153754 0.016323928 -0.0425556
000030 8e a0 b5 be 3d 26 08 bd 14 7e 76 be 9a 0b 78 3d
       -0.35474056 -0.033239592 -0.24071532 0.06055794
000040 1a b1 98 bc b6 64 91 3f ce 21 a1 3b 6f 3b 36 be
       -0.018639136 1.135886 0.00491736 -0.1779611
000050 30 12 87 be 73 51 dd be 4d 3b d8 be 1e 49 4a 3c
       -0.26381063 -0.43226203 -0.42232743 0.012346534
000060 d1 15 40 be 05 3b c8 bc 02 cc d2 3b 1b 41 b8 3d
       -0.18758322 -0.024442205 0.006433011 0.08996793
000070 af 64 f3 3e 84 b5 05 3c ba c4 a5 3c f5 42 14 bd
       0.47537753 0.0081609525 0.020235408 -0.036196668
000080 04 50 91 3c 79 fb 65 bd c9 10 c8 3a aa 83 eb 3e
       0.01773835 -0.056148026 0.0015263791 0.4599889
000090 56 15 ff bd 8d df ef bb 4a cd 70 bd b9 7c d1 bb
       -0.124552414 -0.0073203505 -0.05878953 -0.006393042
0000a0 78 de 78 3c 79 11 25 bf 7c 7a 1e bd ce a3 bf bc
       0.015189759 -0.64479786 -0.03869103 -0.023393538
0000b0 e8 b1 a7 3c db 4b 7b bc fe 62 41 bc 88 17 a4 bc
       0.020470574 -0.01533791 -0.011803387 -0.020030752
0000c0 f6 7e 9b 3d 31 5d 38 3a 58 7c ee be b9 08 a5 be
       0.07592575 0.00070329296 -0.46579242 -0.32233217
0000d0 7f c2 86 bf 2d 99 48 be 5a ff ad 3e fc 3c 78 bc
       -1.0528105 -0.19589682 0.3398388 -0.015151259
0000e0 f4 6d 7a bc 24 07 a1 be 3b 86 03 3d cc 17 09 3f
       -0.015285004 -0.3145076 0.032110434 0.53551936
0000f0 0f 42 2c bc ea 3a ae be cd c7 04 40 ae 83 35 3f
       -0.0105137965 -0.34029323 2.0746949 0.7090405

_SA.0.weight f4 [384, 26]
000000 d8 9e 1c be 24 2d 80 be 7a fa ca bd 03 af 3c be
       -0.15294969 -0.2503444 -0.09911056 -0.18426137
000010 d0 a2 03 bd 5e 61 94 be bf 62 c5 3d e7 86 98 bd
       -0.032137692 -0.28980535 0.09637975 -0.074476056
000020 66 db f3 be 7a 1d 8f bf c6 ac 6b bf 8c be 7c bf
       -0.47628325 -1.118087 -0.92060506 -0.9872825
000030 5d 1f 2c bf 54 af cf be 7a 2e e7 3c f3 0e cc be
       -0.67235357 -0.40563452 0.028220404 -0.39855155
000040 c5 2a ba bd 6a 14 db bd e8 0f de b9 ae 58 8f be
       -0.09090189 -0.10697253 -0.0004235499 -0.27997345
000050 90 ff e6 3d 4a 5c 4c 3d 0c da 00 3e a0 2b 8a be
       0.112792134 0.0498927 0.12583178 -0.26986408
000060 ee 97 30 3e b1 dc 7d 3e f8 c2 01 be 0a e1 fd bd
       0.17245457 0.24791218 -0.12672031 -0.123964384
000070 d8 2e 60 bd 28 2d 86 bd 68 21 90 be 8f 7f cd bd
       -0.054732174 -0.065515816 -0.28150487 -0.100340955
000080 8e 98 b4 3c c6 9f e9 be 6c 44 ff be b8 df 23 bf
       0.0220454 -0.4562971 -0.4985689 -0.6401324
000090 bd ee a1 be d3 32 e2 be 09 e1 a4 be 34 77 01 bf
       -0.31627455 -0.441794 -0.32202938 -0.50572515
0000a0 ad f1 9b be 90 53 d5 be ed fb bd be ac 0c 91 be
       -0.3045782 -0.41665316 -0.37106267 -0.2832998
0000b0 d2 16 41 be f2 6f 9a be 37 85 f9 3d 6a 40 0a be
       -0.18856362 -0.30163532 0.12183612 -0.13501135
0000c0 76 f3 42 3e 4c ad 98 be 82 38 55 3e 9d ea e3 be
       0.19038185 -0.29819715 0.20822337 -0.44514933
0000d0 85 f7 82 be a0 54 14 be f4 ac 83 be 78 d1 d2 bd
       -0.25579467 -0.14485407 -0.2571789 -0.10293859
0000e0 6b f5 43 bc 1a 93 d7 be cd 68 14 bf b9 a9 5a bf
       -0.011960368 -0.42104417 -0.57972413 -0.85415226
0000f0 75 b7 53 bf c0 34 7f bf de 1d 6f bf 2b d9 7b bd
       -0.8270181 -0.99689865 -0.9340495 -0.061486404
000100 8b fd 5c 3d c7 64 da bd 72 42 4b be 97 d8 5d bd
       0.053952735 -0.10663753 -0.19849566 -0.054161634
000110 ae 95 dc bd 22 ef 52 be 1e 3b 40 bc 4f ff a9 bd
       -0.10770737 -0.20599034 -0.011732845 -0.083006494
000120 06 59 72 3d cf cd b4 bd a6 2d a1 3e 25 bb e5 3d
       0.05916693 -0.088283174 0.3148014 0.112173356
000130 78 ad 96 3d bb 87 02 3f 5b 84 ed be e0 db d2 be
       0.07357305 0.5098836 -0.46390042 -0.41183376
000140 c9 36 4f be 4c c5 b2 be 48 f3 2b be a9 fe a5 be
       -0.20235743 -0.3491615 -0.16792023 -0.32420853
000150 47 cb 73 be 78 c8 18 bf f1 9d 32 bf 9d eb 60 bf
       -0.23808013 -0.5968089 -0.6977225 -0.8785952
000160 7f 59 ff be 95 62 00 be c5 ae c3 bd a9 36 e8 3d
       -0.49872968 -0.12537606 -0.09554819 0.113385506
000170 0e d7 cb 3c 43 0f 2f 3d 6d 34 0c 3d e7 ee 0f bc
       0.02488282 0.042739164 0.034229685 -0.008784986
000180 bf ce ae 3c 55 d8 8e be 6f bb 27 ba c8 7e 73 bd
       0.021338819 -0.27899423 -0.0006398474 -0.05944708
000190 13 d6 cb 3e 76 97 2e 3e a8 7d 2d 3f 7e 58 81 3e
       0.39811763 0.17049965 0.6776986 0.25262827
0001a0 76 75 1c be 55 30 da bb c4 70 6d be 1f 07 4f be
       -0.15279183 -0.0066585937 -0.23187548 -0.2021756
0001b0 07 05 2c be ac e5 32 bd 10 bd 97 bd 2c 88 6a be
       -0.16798793 -0.043676063 -0.07409108 -0.22903508
0001c0 75 01 b1 3d 02 06 78 3c 79 40 36 3c 90 1e 66 be
       0.08642856 0.015138151 0.01112377 -0.22472596
0001d0 ed 1d b8 3d da 3a eb bb 0c e9 08 be 73 de b7 bc
       0.08990083 -0.0071786465 -0.1337015 -0.02244494
0001e0 7a 4d b3 bd 5a 14 91 3d 72 47 5a bd 06 3a 82 bd
       -0.08755012 0.0708396 -0.05329079 -0.06358723
0001f0 83 ae 9a bd 4f 28 16 3d 1e b9 97 bd db 82 a5 3d
       -0.07552817 0.036659535 -0.07408355 0.08081599
000200 48 8d 29 3e 17 70 0a be bc e5 f3 3c da c2 9a bc
       0.16557801 -0.13519321 0.029772632 -0.01889174
000210 dd 1c 18 be 92 58 58 be 5a 6e 02 be 3d 10 20 be
       -0.1485476 -0.21127537 -0.12737408 -0.15631194
000220 d0 ac e0 bc 46 42 2e bb 87 a2 25 3d 60 90 3e 3e
       -0.027426153 -0.0026589795 0.0404382 0.18609762
000230 db a6 bb 3e ee 62 05 3f 29 8b 10 3f e8 39 e6 3e
       0.36650738 0.5210408 0.5646234 0.44966054
000240 c6 dc d3 3e 5a 33 9b 3e 82 0e f4 3d 8f 5c 5d 3d
       0.41379374 0.30312616 0.1191683 0.05404335
000250 5d 15 5d 3c 84 33 4c 3b 0a 5b a6 bf 66 c0 f7 be
       0.013493863 0.0031158635 -1.2996533 -0.48388976
000260 bc c0 ab 3e 97 9b 62 be 7e 78 b3 3e 48 3c 8c be
       0.33545482 -0.22129665 0.35052866 -0.2738974
000270 6d 09 66 be 1c 09 2f be 35 49 b0 bd 68 b3 d7 3d
       -0.22464533 -0.17093319 -0.08607713 0.10532266
000280 a9 f9 8c bd 5a f1 e1 bc 49 cd 2f 3c c3 5c fb 3d
       -0.068835564 -0.027580906 0.010730096 0.12273552
000290 ae 48 cd be 18 b6 55 bf 41 9a 08 bf b5 58 56 bf
       -0.40094513 -0.8348098 -0.5336037 -0.83729106
0002a0 f6 e3 bd be ae 71 1b bf 22 c6 12 be 65 63 a9 be
       -0.37087983 -0.60720336 -0.14333394 -0.33083645
0002b0 aa e1 1e 3d 5b 64 c5 bd 58 fd 19 3e 72 24 2e be
       0.03878943 -0.09638282 0.15038049 -0.1700609
0002c0 b5 c0 ac bc 66 f4 32 bd 31 84 e2 3e ad 9f 27 bd
       -0.021087984 -0.043690108 0.4424148 -0.040923763
0002d0 f2 e3 a1 3d 91 b9 03 bd 91 e0 5c bc 19 17 5e 3e
       0.07904805 -0.03215939 -0.013481275 0.21688499
0002e0 c8 e3 38 bf fc 00 25 bf cf 99 ff be 79 e4 fa be
       -0.72222567 -0.6445463 -0.49922034 -0.49002436
0002f0 56 96 04 bf cb 98 ca be 39 e3 0f bf b0 ea a4 be
       -0.51791894 -0.39569697 -0.5620609 -0.32210302
000300 c4 fd 03 bf 9e 82 1e be 33 95 25 be ca 5d b0 bd
       -0.5155909 -0.15479514 -0.16170196 -0.08611639
000310 a9 d6 b5 be b1 36 72 be 84 10 90 3d ee ac aa 3d
       -0.35515335 -0.23653676 0.070344 0.08333765
000320 ca 5c fe 3d 4a a3 97 bd 8b 2e a3 be 06 37 07 3e
       0.12420042 -0.07404192 -0.31871447 0.13204584
000330 0b b8 1e 3e e7 4c 9f 3e 1b 3f 86 3e 48 bd 01 3d
       0.15499894 0.3111336 0.2622002 0.031674653
000340 5b 6f 05 bf 47 e8 ae be f9 4b ab be cd 93 a3 3d
       -0.5212304 -0.3416159 -0.334564 0.07987175
000350 b4 c7 ce 3d e6 8b 73 3e a8 1d c5 3e 26 56 7e 3e
       0.10096684 0.23783836 0.38499188 0.2483755
000360 b0 57 10 be 83 b0 a0 be 53 96 e6 3d 54 08 43 3e
       -0.1409595 -0.31384668 0.11259141 0.19046146
000370 b0 3f 17 3e 90 19 2c 3e 1a a2 c5 bd 03 3e 70 be
       0.14770389 0.16806626 -0.09650059 -0.23461156
000380 96 4d 14 be 7d 27 b6 bd ad 49 1e 3e ec 4b 5c 3e
       -0.14482722 -0.088942505 0.15457793 0.21513337
000390 a2 95 8a c0 3a ba 3c be 9e b1 04 3f a1 fc 3e be
       -4.3307657 -0.18430415 0.5183352 -0.18651058
0003a0 2a be 1f 3e 4c 1e a3 be a1 ff 41 bd f5 ce 7f 3d
       0.15599886 -0.31859052 -0.047362927 0.06245323
0003b0 37 ed 13 be 32 01 b3 bd c9 70 8f be 89 ad cb bd
       -0.14445959 -0.08740462 -0.28015736 -0.099452086
0003c0 3c e5 62 be 6b bc 40 bf 67 23 50 bf 05 fe 3a bf
       -0.22157758 -0.75287503 -0.8130402 -0.73043853
0003d0 9a d1 73 bf 03 3e 3f be 60 d3 a4 3b 9e 5c 38 be
       -0.952417 -0.18676 0.0050300807 -0.1800408
0003e0 10 69 31 3d 83 0c 07 be 7f a9 87 3c fb 52 24 3d
       0.043313086 -0.13188367 0.016560314 0.0401182
0003f0 46 4a f6 3d 7f 49 70 be 33 7a 3e bd b7 86 80 be
       0.12025885 -0.23465537 -0.046503257 -0.2510278

_SA.0.bias f4 [384]
000000 7b 47 8f 3e b0 7c 27 3d 8b b2 82 3e 9b a0 2e 3d
       0.27984223 0.040890396 0.25526842 0.042633634
000010 6d 4b 49 be a2 12 84 40 9d ab b2 3e 58 3e 27 be
       -0.19657679 4.1272745 0.34896556 -0.16332376
000020 9e 74 4b 40 5c e3 84 3c ef d1 53 3f b2 c3 cf bf
       3.1789927 0.016221695 0.8274221 -1.6231596
000030 ba 20 0d 3f 1e af be 3d ba c5 c3 3f f0 f6 bc 3c
       0.5512806 0.09310745 1.5294716 0.023066968
000040 78 68 c3 3e f1 11 b9 40 c9 59 20 40 c3 90 2e 40
       0.3816564 5.78344 2.50548 2.7275856
000050 39 80 09 40 6c a0 85 bd 32 b6 0b 3e ce 51 4e 3f
       2.148451 -0.06524739 0.13643721 0.80593574
000060 18 4f 13 c0 15 ca c2 3c 57 2d cc 3d 72 9b dd be
       -2.3017025 0.023778 0.099695854 -0.43282658
000070 d2 2f 79 bd 3d 6e f5 3c 8f a9 04 40 98 bd 58 3f
       -0.06083662 0.029959792 2.072849 0.846643
000080 76 ab bc 3d 2a 23 cf bf 15 9c 88 40 78 15 1d be
       0.09212391 -1.6182606 4.269053 -0.15340221
000090 e1 70 61 40 4b 7f d3 3e a8 22 05 40 05 d7 cb 3f
       3.5225146 0.41308054 2.0802402 1.5924994
0000a0 b9 5e 74 be f5 99 9f 3d c8 b3 cb bc d6 62 af 3f
       -0.23864259 0.07793037 -0.024866 1.3702037
0000b0 2c 90 30 bd 5b 52 00 3e 02 3c 35 bf dc e3 ed 3e
       -0.043106243 0.12531416 -0.7079469 0.46462905
0000c0 b4 9d 8c 40 15 38 12 be a4 9f 7b 3f 41 8c b9 bd
       4.394251 -0.14279206 0.9829047 -0.090599544
0000d0 45 31 1b 3e c7 e9 11 3e 62 d6 a5 40 ee 7f d4 3e
       0.15155514 0.14249335 5.18242 0.41503853
0000e0 de 32 73 3e 81 fa 83 c0 8d 74 03 3e 92 c0 74 3d
       0.23749873 -4.124329 0.1283743 0.05975396
0000f0 52 75 e3 bc 0d ec aa 3f 96 25 26 40 9b ac 1e 3e
       -0.027765904 1.3353287 2.596044 0.15495531
000100 51 f0 56 3d 00 a0 4e 3e 33 05 8c 3d 0a 05 b3 40
       0.052475277 0.20178223 0.06836929 5.594365
000110 55 cc 51 40 13 61 ec 3e 04 0e 3d 3f 1b 85 84 3e
       3.2780964 0.46167812 0.7384951 0.258828
000120 9d 04 5d be 70 a4 d6 3e 05 78 99 bd c5 89 1e be
       -0.21583791 0.4192233 -0.07493595 -0.15482242
000130 72 75 14 bd 6c 4c 7a bd 71 95 33 3d f1 f2 1e 3e
       -0.036244817 -0.061108038 0.04384369 0.15522362
000140 2c 73 33 3f 11 d8 ae 3f f6 c0 ec 3e 27 54 97 3e
       0.70097613 1.3659688 0.46240968 0.2955639
000150 14 1a 43 be 4c 57 23 bc 65 39 c1 be 61 54 97 bd
       -0.19052917 -0.009969544 -0.377391 -0.07389141
000160 ae 44 85 3f 5e b2 99 bd e6 6a 4c 3c 07 de a3 3e
       1.0411584 -0.07504724 0.012476658 0.3200533
000170 9b 41 84 3e c6 99 9f 3e 59 75 90 3f a6 c6 57 40
       0.25831303 0.31172007 1.1285812 3.3714995
000180 8e 98 60 3e 66 ed 06 3e 05 0b 8c 40 4b 2f 5f 40
       0.21933195 0.13176498 4.376345 3.4872615
000190 99 63 69 40 7c db 5c 3d 62 70 10 3f 73 e3 4b 40
       3.646704 0.053920254 0.5642148 3.1857574
0001a0 25 ec 1c 40 20 7b 17 3f d2 c5 6b 40 6e ab 04 c0
       2.451913 0.5917225 3.683949 -2.0729632
0001b0 36 87 8f 3c 54 91 05 be 44 6d 98 bc b2 72 a2 3e
       0.017520528 -0.1304372 -0.01860679 0.3172813
0001c0 84 20 9b 3f c4 a3 e7 3e bc c0 cc 3e de f8 d8 3e
       1.2119298 0.4524213 0.39990795 0.4237737
0001d0 89 97 33 40 ee 4a 7d 3c c0 eb bb 3e 5c 86 74 3e
       2.806124 0.015459759 0.367033 0.23879379
0001e0 21 c4 00 bf 41 04 22 3f 36 89 33 bf da ff 62 bd
       -0.5029927 0.6328774 -0.7013124 -0.05541978
0001f0 37 ab 57 c0 71 5b c5 be 20 25 22 40 90 aa 14 3f
       -3.3698251 -0.38546327 2.533516 0.5807276
000200 62 76 e5 3d 79 4f e9 3e 35 a8 48 3e a8 5b 93 bd
       0.1120422 0.45568445 0.19595416 -0.071952164
000210 56 78 97 3e 1d a5 18 3f 6c c0 c4 3c 85 57 8f bf
       0.29583997 0.5962694 0.024017535 -1.1198584
000220 05 87 82 be ff 0b 76 3e a4 fb 08 3f ea 71 1e bf
       -0.25493637 0.24028014 0.53508973 -0.6189257
000230 5a 83 57 3e c2 e2 a7 c0 44 96 66 c0 74 ae 17 bf
       0.210462 -5.2464304 -3.6029215 -0.5925057
000240 a1 83 41 bf 7b 39 6f be 82 95 8b 40 e1 c7 b8 3e
       -0.75591475 -0.23361771 4.3620005 0.36089996
000250 38 1d 84 bc 42 5d fd 3d 51 2a 0c bc fe 74 c4 3e
       -0.016127214 0.12371303 -0.008555011 0.38370508
000260 c9 0c 1d 3e 70 54 23 c0 fe 57 fe 3c 80 82 e3 3f
       0.15336908 -2.5520287 0.031047817 1.77742
000270 36 6d 15 b9 32 41 86 3e a4 c6 9d c0 ce 58 bd 3f
       -0.00014250432 0.26221615 -4.930498 1.4792726
000280 ce 4b 0e 40 d9 6f 68 40 da 1e 1b 3e c7 88 df bc
       2.2233768 3.6318266 0.15148488 -0.0272869
000290 0c d6 80 bf c3 66 75 40 a0 9b 4e 3e 89 08 0b c0
       -1.0065322 3.834397 0.20176554 -2.172396
0002a0 1e 95 d6 3f 57 c2 cf 3e 34 6f 3d be e9 dc 7b bd
       1.6764257 0.40577957 -0.18499452 -0.061489973
0002b0 e3 fa a2 3f 76 cb 11 40 83 34 8c 3e 62 cb f7 3e
       1.2732815 2.2780433 0.27383813 0.48397356
0002c0 e5 4e 57 bd f3 75 ec 3e 52 19 95 3f 2b 5b 18 40
       -0.052565474 0.46183738 1.1648352 2.3805645
0002d0 28 a0 e6 3d 3a aa 29 be a5 1b 63 be 68 05 1a 40
       0.11261016 -0.16568843 -0.22178514 2.40658
0002e0 74 c8 4f bf 78 8d 45 40 6e e3 8f 40 ea c2 9d 3d
       -0.8116524 3.0867596 4.4965124 0.077031925
0002f0 fd 63 54 3e 15 da 9e 3e a9 11 2b 3c 95 ce 4a 40
       0.20741268 0.31025758 0.010441222 3.1688588
000300 5c 1b dd 3f 19 d8 27 bf 6c 8b cd bf 4a 92 8f 3e
       1.7273974 -0.65564114 -1.6058173 0.28041297
000310 89 f5 6a 3d fc 21 35 be 28 67 62 40 97 21 6b 3e
       0.057363067 -0.17688745 3.5375462 0.22962032
000320 c1 3c 56 3d 95 99 74 3e 20 fe 33 be f3 e7 00 3e
       0.052304033 0.23886712 -0.1757741 0.12588482
000330 07 ea d6 3f ea 40 29 3e 77 ed 0c 40 a5 b1 2c 3f
       1.679017 0.16528669 2.2019937 0.67458564
000340 24 bc a3 3d a1 bc 25 3f 7d e2 e3 bf 2d 98 33 40
       0.07994869 0.6474095 -1.7803494 2.806163
000350 ec 13 f2 3e 42 8b 65 3e ee 40 ac 3e 35 75 21 3d
       0.47280824 0.22416404 0.33643287 0.039418418
000360 24 77 08 40 54 76 37 40 cd 09 d8 3f e3 10 93 3d
       2.1322718 2.8665972 1.6877991 0.07180955
000370 56 f1 1b 40 4d 3d f5 bd 9c 38 e7 3d 71 37 1f 3f
       2.436605 -0.11974583 0.11290094 0.6219397
000380 b8 9b 76 3f ef 15 8f be 22 74 2f 3e 68 40 3e be
       0.9633136 -0.27946422 0.17134145 -0.18579257
000390 b8 f6 26 be 8b c3 00 be 8c 5d a9 3d eb 44 02 40
       -0.16305053 -0.12574594 0.08269796 2.0354564
0003a0 0d 4d c7 3d 8e d4 89 bd 42 88 05 40 a0 7a bd c0
       0.09731493 -0.06729995 2.0864415 -5.921219
0003b0 11 de 99 3e 1f 74 91 3e f8 a2 79 be 72 43 db 3f
       0.30052236 0.28408906 -0.24378574 1.7129958
0003c0 ab 72 4f 3e c2 42 45 be ee d7 51 40 6b 15 6d 40
       0.20258586 -0.19263747 3.2788043 3.7044322
0003d0 06 d7 8d 3f c1 fc e5 3f 0a cd aa 3e 3a f6 58 3e
       1.1081245 1.7967759 0.33359557 0.21187678
0003e0 6b be 01 3f 18 56 e7 be 12 4f 71 3e 39 12 df 3f
       0.5068118 -0.45182872 0.23565319 1.7427436
0003f0 3d 1b 09 3f c5 ff 44 3f 0f da f1 3e a1 0a f0 3f
       0.5355719 0.76952773 0.47236678 1.8753244

_SA.2.weight f4 [64, 384]
000000 a7 f9 8f bd 9b 13 36 bd 69 b7 ec 3d ec 61 e4 bd
       -0.07030039 -0.04445229 0.1155842 -0.111514896
000010 e7 7d e6 bc 16 aa c7 be e3 b2 b5 be 38 d9 1b 3e
       -0.028136207 -0.38996953 -0.35488042 0.15219581
000020 58 95 7b bd 83 2e 28 3d 5d 16 6b be 8d 95 8a be
       -0.061421722 0.041059982 -0.2295775 -0.27067223
000030 c8 af 67 bd f7 3b f2 3d 9a a5 a8 bd d6 84 1c be
       -0.056564122 0.11827844 -0.08234711 -0.15285048
000040 1f 41 2d be e5 5d cc bd e8 68 13 3d 66 cc 5e 3b
       -0.16919373 -0.099788465 0.03598872 0.0033996343
000050 d1 58 68 bd 26 e7 25 bb d9 c5 c0 bd e1 b1 0c bd
       -0.056725327 -0.0025314777 -0.094127364 -0.034349326
000060 07 e0 c0 be 55 1b 2d bd f8 82 f3 bd c0 f4 e5 bd
       -0.3767092 -0.042262394 -0.11890215 -0.11228323
000070 ca 1d b4 bd da e9 09 be ce 17 dc 3d a5 ff 00 bd
       -0.08794744 -0.13468114 0.10746728 -0.0314938
000080 cf 7e e8 bb 5f 9e 9e 3d 3d 18 89 3e 7f b7 4c be
       -0.007095195 0.07745051 0.26776305 -0.19991873
000090 bc d1 07 3e db 03 f8 3b 1f 60 4f be 53 36 57 bd
       0.13263601 0.007568819 -0.20251511 -0.052542042
0000a0 c5 0e c1 bc d4 b9 dd 3d dc 4f 65 3d da 61 ca bd
       -0.023566613 0.108264595 0.055984363 -0.09881945
0000b0 2a dc 2a 3e 7e 6a 4f 3d 2e a4 44 bd 09 fd 0c be
       0.16685548 0.05063867 -0.048008136 -0.137684
0000c0 c5 84 ec bd c9 af cc 3c 57 00 9c be 37 b4 f5 ba
       -0.11548761 0.024986165 -0.3046901 -0.0018745725
0000d0 68 8e 31 3e bf 51 8f bd 24 e5 b3 bd 2a f2 4b be
       0.1733948 -0.06998014 -0.087839395 -0.19916597
0000e0 24 57 50 3d 8c bf 8e be 9f 06 51 3e b5 b0 5d 3c
       0.050864354 -0.27880514 0.20412682 0.0135309
0000f0 98 fd 28 bd 5a c1 5f 3e f8 28 d0 bd b9 2a 0e bd
       -0.04125747 0.21851102 -0.10164064 -0.034708712
000100 13 fa 4e bc 68 67 d0 bc 7f e3 0b be 66 1e 00 bd
       -0.0126328645 -0.025439933 -0.13661002 -0.03127899
000110 3d 37 82 be e4 25 80 3d 10 74 9e 3d cb 76 c6 3c
       -0.25432768 0.06257227 0.07736981 0.024226567
000120 0b 0a 0f be a1 0b 4c 3d 22 c7 93 3d 5e e3 84 3e
       -0.13968675 0.049815778 0.07215716 0.25954717
000130 b8 60 39 be 63 a6 95 bc e4 92 1c bc 03 3b f9 3c
       -0.18103302 -0.018267816 -0.009556506 0.030423647
000140 e9 9b 88 be 5c 89 16 be 4a c3 2c 3e bf 1e 05 be
       -0.2668145 -0.14700836 0.16871372 -0.1300001
000150 d3 55 ac 3c b9 ab a0 bd c7 17 0a bd 28 ba 99 be
       0.021037018 -0.078452535 -0.033714082 -0.30024838
000160 fe 10 4d 3e bb 11 e2 3d bc 85 96 3e 24 fb 1b 3b
       0.20026013 0.11038538 0.29398906 0.0023800815
000170 ed 1f 4d be a7 25 f4 3d 9c 37 2c bd 06 0f 34 3d
       -0.2003171 0.11921244 -0.04204522 0.04395964
000180 aa 2b 1d 3d 87 7f cc 3e 4e 36 e9 3c 09 91 c9 bd
       0.03837172 0.39941046 0.028468277 -0.098421164
000190 78 58 23 be 76 2f 2c be 06 5f e3 3d 19 6a 38 3e
       -0.15951717 -0.1681498 0.11102109 0.18009223
0001a0 18 fb da bc ee 93 f3 3d 30 ca 30 be 1d ac fe bd
       -0.026731059 0.1189345 -0.17264628 -0.12435172
0001b0 f0 0c 8d 3d 32 82 4e bb 8e dd e3 3c 91 24 86 3d
       0.06887233 -0.0031510708 0.027815606 0.06549943
0001c0 40 60 9c bd f2 d2 25 be 9e ec 84 3e 9b 71 75 3e
       -0.07635546 -0.1619375 0.25961775 0.23969118
0001d0 82 8b 15 be 6c a8 80 3c c9 98 3d 3e 5b 30 f2 3c
       -0.14604 0.01570531 0.18515314 0.029564073
0001e0 29 ce b2 3d 33 f5 98 bb 3e a5 7c be 71 50 56 3e
       0.08730728 -0.004667902 -0.2467241 0.20929123
0001f0 2a 89 08 be 83 df 45 be 24 18 a4 3c 8d 2d fe 3d
       -0.13333574 -0.19323544 0.020031042 0.12411032
000200 e5 4b 51 3b 81 0e 29 3d 66 55 21 bd 16 d9 d1 3c
       0.0031936106 0.041273598 -0.039388083 0.02561621
000210 6e c8 97 be 02 84 fb bd 68 66 07 3e 89 da 5a bd
       -0.29645103 -0.12281038 0.13222659 -0.053431068
000220 d6 d7 8e bc 86 f0 96 3d 7b 21 09 3e 5e c5 ad bd
       -0.017436903 0.07370095 0.13391678 -0.084849104
000230 68 d7 bc 3e a9 47 4c bd a4 48 3c be b9 e2 4f be
       0.36883092 -0.049873028 -0.18387085 -0.20301332
000240 19 07 22 be a0 bb 8f 3b 56 24 df 3d c7 be 03 3d
       -0.1582302 0.0043863803 0.108956024 0.03216436
000250 22 9c bd bc 64 f1 9a bc 79 6e 0d 3e 2f c2 b7 3d
       -0.023145739 -0.018913932 0.13811673 0.089725845
000260 d8 42 5f 3e f3 9b 37 be e5 a0 9c 3c 71 d0 95 3d
       0.21802843 -0.17930584 0.01911969 0.07315148
000270 ee a4 98 bc 5d 6b c5 3e 8a 38 d3 be c7 18 a9 3e
       -0.018633332 0.38558474 -0.41254073 0.33026716
000280 43 9c 03 3c b5 48 98 ba 76 af a5 3d 2e be a9 3e
       0.008032861 -0.0011618348 0.08090107 0.33152908
000290 ca 8f 73 be 18 d2 04 be 57 0e 8c bd 43 c2 0a 3e
       -0.2378532 -0.1297077 -0.068386726 0.13550667
0002a0 3b 3b 72 3b 2a 82 a0 3e 96 ab e3 bb 35 43 23 be
       0.0036961574 0.31349307 -0.006947945 -0.15943606
0002b0 22 6f 80 3d 6b 42 5c 3e 30 5e a0 3d 11 10 4d 3d
       0.06271197 0.21509711 0.07830465 0.05006415
0002c0 23 bb bd bb c5 32 4e be 7e 36 62 bd ae 15 93 be
       -0.0057901307 -0.20136555 -0.05522775 -0.28727478
0002d0 02 21 0c 3e 49 6a 8b be 5e 67 15 be 04 3b a9 be
       0.13684466 -0.27229527 -0.14590213 -0.33052838
0002e0 99 06 e4 bd 1f 1b b4 be 42 41 8a be a6 75 37 3e
       -0.11134071 -0.35176942 -0.27002913 0.17915973
0002f0 65 70 cc 3d 5b 9c 1d be 72 c5 ef 3c 59 93 ac bd
       0.09982375 -0.15391676 0.029268954 -0.08426542
000300 00 2a 88 bd fb 93 12 3e 5f c4 8a 3d f4 10 89 be
       -0.06648636 0.14314263 0.06775736 -0.26770747
000310 e6 c9 11 3c 66 61 05 3e 7f f3 3d be fe 1e eb 3c
       0.008898234 0.13025436 -0.18549918 0.028701302
000320 f1 d6 ed bd aa de 07 3d cd 6b ed bb 66 82 d2 3d
       -0.116132624 0.033171333 -0.007245517 0.10278778
000330 0b 3f 35 bd 8a 4e c2 3b 92 25 18 3e 47 58 81 3e
       -0.044249576 0.0059297727 0.14858082 0.25262663
000340 3a 0d e4 3c 3b 96 22 bd 1f 53 a3 bd ed 42 2c 3d
       0.027838338 -0.039694052 -0.079748385 0.042056013
000350 cf 1f 2e 3e b0 ba 6c bd 7d 64 33 3e 0a d6 3a be
       0.17004322 -0.057795227 0.17518802 -0.18245712
000360 98 5b 38 3e a8 c0 c7 be 7d 55 16 3d 13 34 5f 3d
       0.1800369 -0.39014173 0.03670262 0.05449302
000370 05 60 61 be 60 d1 22 3e 9c 20 98 bd a1 ec 31 be
       -0.22009285 0.15900183 -0.07428095 -0.17375423
000380 a8 72 40 3e 98 e4 52 be 71 d9 dd 3c 86 b1 39 3e
       0.18793738 -0.20595014 0.027081223 0.18134126
000390 97 b2 26 3d f9 42 98 bc bf c7 02 be 3b 07 3f be
       0.04069766 -0.018586623 -0.1277151 -0.18655102
0003a0 d8 da 9c 3c 47 c3 3a 3e c9 bf de 3d cc 95 ba bd
       0.019147322 0.18238555 0.10876424 -0.09110603
0003b0 a1 b9 11 be 59 54 15 bf e4 55 b6 3c 5b bb 62 bd
       -0.14230968 -0.5833183 0.022257753 -0.055354457
0003c0 12 a3 9a bd 25 c6 7a 39 32 cb 1a be c9 91 5a be
       -0.075506344 0.00023915673 -0.15116575 -0.21344675
0003d0 41 58 80 be 9d b2 9d bd 6b 44 8f be 2b e9 67 be
       -0.25067332 -0.077000834 -0.27981886 -0.2264754
0003e0 fc 91 f5 bb b5 c2 e0 3b 1c 40 69 3d fb a6 ce 3d
       -0.0074942093 0.0068591484 0.056945905 0.10090443
0003f0 5f ff 14 be 04 da c7 3d 48 dd 72 3e 28 97 b2 3c
       -0.14550541 0.0975838 0.23717225 0.021800593

_SA.2.bias f4 [64]
000000 ff 28 3d be 78 9e 04 3e 8a 73 55 3c d3 66 4d 3e
       -0.1847267 0.12951076 0.013028035 0.20058756
000010 e9 aa a8 bd a6 e2 d9 bf 3f e6 39 3e 43 0e e1 3d
       -0.082357235 -1.7022293 0.18154238 0.10989048
000020 c6 6b 46 bf c8 31 b6 3d 96 fc fb bd c3 82 83 3e
       -0.775082 0.08896214 -0.12304036 0.256857
000030 aa be ef bc b3 bf dd bc 2a 4c 7f 3e c0 09 82 bc
       -0.02926572 -0.027068948 0.24931398 -0.01587379
000040 c8 1d 71 bf 04 f7 a7 3f 12 af 61 3f 5c e0 79 3b
       -0.9418607 1.3122258 0.8815776 0.0038128113
000050 86 7d 47 bd 8e 93 d7 bd 78 01 54 bd 25 4e 61 40
       -0.048703693 -0.10526191 -0.051759213 3.5203946
000060 df 5f 91 3e 73 4f 90 bd ad 1a 2d bd 38 83 91 3d
       0.28393456 -0.07046404 -0.042261768 0.07105106
000070 b0 bf a8 bd f2 37 e7 3d 07 9b 6c bd 8f e0 4b 3e
       -0.082396865 0.112899676 -0.057765033 0.19909881
000080 7e a3 39 40 ee 7c dc bc 2f 88 ec 3d 53 0c 2d bd
       2.9006038 -0.02691504 0.115494125 -0.04224808
000090 a3 ad c8 be 7b 4c 41 be 79 18 08 3e bd b7 04 3d
       -0.39194974 -0.18876831 0.13290586 0.03240179
0000a0 3d a3 84 bf 78 ee 1e 3e 1e 5c 1b 3e d7 22 4c 3e
       -1.0362316 0.15520656 0.15171859 0.19935165
0000b0 b4 f7 46 bf 70 96 99 bd b4 c8 c2 bc 3f cf 8c be
       -0.77721715 -0.07499397 -0.023777343 -0.27501866
0000c0 04 10 0c bc be e9 a9 bd 16 f4 b5 3d 94 dd ad bd
       -0.00854874 -0.08296536 0.08884446 -0.08489528
0000d0 c7 51 7a 3b 63 db 95 40 1b ec ca bd 08 f8 03 bd
       0.0038195716 4.6830306 -0.09908315 -0.032218963
0000e0 8a f5 2b be 07 78 4a bd cc 56 5d bc 03 0f 0b bf
       -0.16792884 -0.049430873 -0.0135094635 -0.5431978
0000f0 5d 6e c8 be f9 64 0c 3f db 93 82 3e 79 f7 c8 3f
       -0.391467 0.5484157 0.2550343 1.5700523

_SA.4.weight f4 [1, 64]
000000 a9 12 54 3d 31 b7 8a be 0e 06 60 3c 52 38 26 be
       0.05177561 -0.2709289 0.013673319 -0.16232422
000010 f3 a5 00 3b 1e a5 07 bf d0 ef 60 be f3 3f 8e be
       0.0019630163 -0.52986324 -0.21966481 -0.27783164
000020 d1 ec 59 3e 98 fb d3 be 47 64 db b9 0b 74 6a be
       0.21281745 -0.41402888 -0.00041845648 -0.2289583
000030 a1 65 eb bc b7 ba 21 3e 68 65 5a be df 16 9b bc
       -0.028734984 0.15793882 -0.21327746 -0.018931804
000040 fa 7f 30 3f 3c 48 35 bf e5 7f 2c bf 00 73 b9 3c
       0.68945277 -0.70813346 -0.6738265 0.022637844
000050 0d 1e 84 3d 31 16 ea 3c 88 f4 83 3d 1d be fb 3e
       0.06451044 0.028575035 0.06443125 0.49168482
000060 81 4a bf 3e 95 de 9f 3d b3 43 1c 3d d2 e6 23 be
       0.3736153 0.07806126 0.0381505 -0.1600602
000070 89 72 bb bc d4 fd 8b bc 6c 9b 1e bc c3 ad 74 be
       -0.022881763 -0.017088808 -0.00968061 -0.2389441
000080 9f b3 3e 3f ae c2 0d 3d 82 fb 24 bd 35 03 af 3c
       0.7449283 0.03460949 -0.04027892 0.021363834
000090 61 ee e8 3f 0a ca f8 3a a8 de f0 bd fe 45 f7 3e
       1.8197747 0.0018981111 -0.11761218 0.48295587
0000a0 73 44 bb be d8 4c 3c be 4a 1b aa b9 f5 b3 a3 be
       -0.3657566 -0.18388689 -0.0003244526 -0.31973234
0000b0 b5 fa a3 be 71 2f 4f bd 79 79 b1 3d bd cb e0 3d
       -0.32027212 -0.050582353 0.08665747 0.1097636
0000c0 8d 00 8c bc ea 3f eb bc 6b cb 2b be d4 5b 77 3c
       -0.017090106 -0.028717 -0.16776817 0.015097577
0000d0 83 7c 9e 3c 98 db 8a 3f 29 3f 3d bc e2 f5 a5 bb
       0.019346481 1.0848265 -0.011550703 -0.005064712
0000e0 c7 6c b2 bb c9 be af 3d 81 8b 42 bd 0d 29 ab 3f
       -0.005445096 0.08581311 -0.047496323 1.3371903
0000f0 e2 36 19 3e d5 f5 a0 bf 7c 51 9d bc 33 3b 1d bf
       0.14962342 -1.2575022 -0.019203894 -0.61418456
