LMRL-RL/TD3-GRU/model/baseline_model/best_models/TD3_velodyne_actor.pth (torch, 43039 bytes, 4 tensors)

CFC.0.weight f4 [384, 24]
00000000: 2dbf 94bd 601d 393d 4afe 6fbe 2c71 5bbe
00000010: 9fee 0cbe a702 53bb 2b9a 89bd f19e c13d
00000020: 8432 a8bd d506 f9bb 8f50 05be e0c1 cebd
00000030: 5521 86be 5fbe 51be ed75 1dbe cef2 68bd
00000040: d762 c83c 563e 873d b5d9 4abe 1ce2 1bbe
00000050: fbfc 8b3b c514 d43d a12d 83bd 97b9 963d
00000060: a079 aebd f0bb a6bc ba4a 163e 1c30 74be
00000070: 2625 37be 8029 d6bd 20e6 08be bed8 0c3e
00000080: 5444 33be 1ec6 0ebe 50e3 43be 78e3 73be
00000090: f8eb 27be 70be f63d 8559 283d 411b 523d
000000a0: 1f07 13bd a41e 18be 06c8 1bbc 2167 74be
000000b0: 3eac 44be 5f96 e6bc 0c51 f53d ce50 a03d
000000c0: 1c39 85be 6b3e a2bd 93c0 8d3d f732 973d
000000d0: 2e86 133d ce6e b8bd 1393 c23d 6ee3 59be
000000e0: 8859 abbe 005d 17bf 985d 1bbf a28f 1dbf
000000f0: 55b1 98be 64e4 68be 178a 8cbe 0b51 a7bd
00000100: b525 b93d cfd1 cfbd acdf ae3c 3fac 69bc
00000110: 7c28 563d 2516 873e fb77 c33d 89de eabd
00000120: 33c8 0cbe c222 b7bc dcd6 1cbd 42d5 583d
00000130: 387a 04be 0e48 02be 1a1b 8fbb 8bd5 4fbe
00000140: 9005 60be 971b 1f3e 5acf 1b3e 0d11 43be
00000150: 9470 23bf 2ad7 8ebf 73c9 85bf 03f2 25bf
00000160: 0a14 7dbe 506c f1bd 243c 373d 9ec4 11bd
00000170: aeb3 8dbd 024c 803e 4f5d 1bbf 5adb 6cbe
00000180: 9971 2bbc 4954 7fbd 95e4 84be 59c8 63be
00000190: c29e 9c3d eff8 cf3c 6960 39be 6df6 0bbe
000001a0: c0c2 8dbe cf9c aebd 32f4 6fbe 4583 73be
000001b0: 9fa1 cbbd 8757 68bd d7a1 2ebe 785f 203d
000001c0: 2d41 3ebe 8a14 033e e44f 903d a5d2 6ebe
000001d0: 9edf e6bd 76ff e8bc a74b 513c 2a30 313d
000001e0: b721 293f 9d77 033f f604 b03d 8527 e7bc
000001f0: e4cd 0cbf 0bc1 c3bf 7064 e2bf 6ecc f8bf
00000200: 662e 90bf 624c c8be 8209 ab3e dc38 b33e
00000210: 07c7 433d 14b2 503e be34 303e cd8c cd3d
00000220: de05 6e3d 5892 65bb 5980 15bd d4dc f4bc
00000230: 6120 003e 057e 603f b686 ad3d a150 973d
00000240: 1945 5cbe 2c97 03be 8ca8 db3d e665 07bd
00000250: 5463 08be bcab 40be 381c 64be acf0 50be
00000260: 72d7 95bd 1835 a43d f8f5 a03d 3419 6abe
00000270: 93c0 c33d 2212 44be 1965 99bd b585 eabd
00000280: 018a 91bd 6d19 93bd e613 5cbe b8fd 54be
00000290: fa75 82bd 7f69 eebc 6ee8 bdbd be79 de3d
000002a0: 2d2d 82be 2b23 94bd d4f0 ae3d 08bd 2bbe
000002b0: 96fe d93d eaa2 6e3c cad4 88be c9d6 983d
000002c0: c3f6 83bd 6bbe 00be a85e d13d b4df 77be
000002d0: e962 8ebb d7d9 cfbd 1538 983d b7bc 67bc
000002e0: e0ca f13c 85b4 d43b 35f5 ccbd 0f62 c7bd
000002f0: f6f5 5abe 2a73 d13d 39ba ac3d b58d 6c3e
00000300: 6fda fa3d 8f8b 8bbe c633 77bf c07d bdbf
00000310: f6ca edbf b999 f3bf 2eda dcbf 8567 923b
00000320: 73fc a73e c312 ad3e b742 bc3d afc7 4f3e
00000330: 1761 723e f18b 1e3e ba63 6a3e 2215 723d
00000340: 66e5 4dbd 66e2 84bd 26f7 cfbd ce77 b0bd
00000350: c4ed f1bd e011 803f 0bea 4c3e d404 bbbe
00000360: dcef ed3d 5611 9c3d 836a 943e f113 b23d
00000370: dcb6 b23e 93cf dc3e d9b0 2c3e c7dd 1abf
00000380: 5c37 bdbf 7385 b2bf 1442 bbbf 60c6 97be
00000390: c9ab ea3d e459 223e 171a 2ebd 4f47 7d3d
000003a0: a6d0 0d3d 97f3 263d fd72 ab3c 86df 1fbe
000003b0: 4edf 8c3d 5a0e a63e 4447 0e3d 9049 4d3e
000003c0: d6e7 20be 2b71 03be bf52 40bc ad28 0b3e
000003d0: 909b 743e c347 db3d 54b5 a13d a6fc 2e3d
000003e0: 8a9e 403e 2f76 393e 2ba1 b0bd 047d 79bc
000003f0: cc1b 1a3e 324f 3b3e 124e 2c3e d29e 543e
-0.072630264 0.04519403 -0.23436847 -0.2142989 -0.13762902 -0.0032197626 -0.06718858 0.09454144
-0.0821276 -0.0075996914 -0.13019012 -0.100955725 -0.26197305 -0.20482777 -0.15377016 -0.05687218
0.024461193 0.066036865 -0.19809611 -0.15222973 0.004272101 0.10355524 -0.064051874 0.07359617
-0.08519292 -0.020353287 0.14676943 -0.23846477 -0.17885265 -0.10457134 -0.13369036 0.13754556
-0.17506534 -0.13942763 -0.19129682 -0.23817241 -0.16398609 0.12048042 0.041100997 0.051295523
-0.035895463 -0.14855438 -0.0095081385 -0.23867466 -0.1920633 -0.028147874 0.11978349 0.07827912
-0.26020133 -0.079220615 0.06921496 0.07382768 0.036016636 -0.09005509 0.095007084 -0.21278164
-0.33466744 -0.5912628 -0.6068969 -0.6154729 -0.29822794 -0.22743374 -0.27449104 -0.081697546
0.09040395 -0.1014744 0.02134689 -0.014262258 0.052284703 0.26384082 0.09544369 -0.114682265
-0.13748245 -0.022355441 -0.038290843 0.052937753 -0.12937248 -0.12722799 -0.0043672444 -0.20296304
-0.21877122 0.15537868 0.15215817 -0.19049473 -0.63843656 -1.1159413 -1.0452102 -0.64822406
-0.24714676 -0.11788237 0.04473509 -0.0355879 -0.06919037 0.2505799 -0.6068925 -0.23130551
-0.0104640955 -0.06233624 -0.25955644 -0.22244395 0.07647468 0.025387255 -0.18103184 -0.13668223
-0.27687645 -0.085260026 -0.23432997 -0.23780544 -0.09942936 -0.056724098 -0.17053925 0.039153546
-0.1857955 0.12800804 0.07046488 -0.23322542 -0.1127312 -0.028442126 0.012774385 0.043258823
0.6606707 0.5135439 0.08594696 -0.028217087 -0.55001664 -1.5293287 -1.7686901 -1.9437387
-1.126416 -0.39120775 0.3340569 0.35004318 0.04779723 0.20380431 0.1720762 0.10036621
0.058111064 -0.0035029855 -0.036499355 -0.029890455 0.12512352 0.8769229 0.0847296 0.073884256
-0.21510734 -0.12850636 0.10725507 -0.033056162 -0.1331914 -0.18815511 -0.2227639 -0.20404309
-0.073164836 0.08017939 0.07859415 -0.22861177 0.09558215 -0.19147542 -0.07489986 -0.11451284
-0.071064 -0.07182584 -0.21491966 -0.20799911 -0.063701585 -0.029103039 -0.09272848 0.10863064
-0.2542509 -0.0723327 0.08542028 -0.16771328 0.106442615 0.014565209 -0.26724845 0.07462842
-0.064435504 -0.12572639 0.10223132 -0.2420643 -0.004345287 -0.101489715 0.07432572 -0.014144114
0.029515684 0.006491246 -0.10007707 -0.097355 -0.21382889 0.10227044 0.08433957 0.23100932
0.12248694 -0.27254912 -0.96563375 -1.4804001 -1.8577564 -1.9031287 -1.7254083 0.004467907
0.3280979 0.33803377 0.09192412 0.20291017 0.2366985 0.15483071 0.22889605 0.059102185
-0.0502676 -0.064884946 -0.10154562 -0.08616601 -0.11812928 1.0005455 0.20011155 -0.3652712
0.11618015 0.07620494 0.28987512 0.0869521 0.34905136 0.43127117 0.16864337 -0.60494655
-1.4782519 -1.3946975 -1.462954 -0.29643536 0.11458547 0.15854603 -0.04250535 0.061835583
0.03462281 0.04075965 0.020928854 -0.15612611 0.068785295 0.32432824 0.034735933 0.20047593
-0.15713438 -0.12836139 -0.011738478 0.13589735 0.23887467 0.10707047 0.07895914 0.042721413
0.18810478 0.1811149 -0.0862449 -0.01522756 0.15049666 0.1829193 0.16826656 0.2076371

CFC.0.bias f4 [384]
00000000: 34a4 1bbe c947 b8bc f099 42be 410d 08be
00000010: a924 00be b526 253f 1c8d a6bc 48e7 9c3b
00000020: 7987 903f 5a76 3c3f 8a82 19c0 c308 683f
00000030: 1634 90be a6df 383e a293 6cbd b86c 31be
00000040: b29f 6d3f 6320 7cbf 2dba 083f ded2 17bf
00000050: 05d3 75be a843 d1be b600 143e e225 a8bd
00000060: 481f c2be 419e d23e 4605 7c3e 790c 523b
00000070: bc31 16be f06a e7bd 1e21 653f 24a5 4dc0
00000080: c510 b3bc 3939 063d 248b 41be 5726 1d3e
00000090: d0d1 bcbe 546d 093f 775c 793d 3579 043e
000000a0: a85c 263e 96ab fdbf 70f4 ddbf 7dc3 0a3f
000000b0: b36f 593e 22c7 83bf 8b36 703d 964f 973d
000000c0: e9fe 4abe ffe7 51be 91b4 5c3e aa12 203d
000000d0: 06b6 e4be e6f9 63bf 6ca5 9fbe b7dc 363e
000000e0: 275c ff3b e950 12be 1c03 f1bd 78ac c63e
000000f0: 114c a7be 5b6a 7cbe 8ee1 b13e 4144 84bd
00000100: 598f debf ab7b 89bd fc1f a23f 2734 9ebd
00000110: 8180 1ac0 6ced 2dbd a8de 81bd 2862 0fbe
00000120: 36fd a5be f18d 6a3d d41f 1bbe f8a2 843d
00000130: 96fe 79be 1db6 dcbf 8315 6bbe 0cce a5bd
00000140: 7c45 99bd 1bc8 6fbd 4ecb 03be c840 1abd
00000150: e482 473f 372e 7dbd fbe1 d4be e8d1 bc3d
00000160: e773 3b3f 8494 0c3f ecf6 d9bd b595 66be
00000170: 312a 133e 1cd2 243f 4b54 ea3c 52d5 6c3e
00000180: 6b1d 0fbc d13b bd3d de8f 9c3d aebf 293f
00000190: 91a7 203f e514 a1bd be9b 5ac0 b833 a2bd
000001a0: b13f 3c3c 9961 153e 7e57 4c3e 5727 9fbd
000001b0: 8d62 893f eb4d a5bd 467f aebf 44ab debd
000001c0: f0ad 91bd 46f9 163f 988c 09be dbd9 acbd
000001d0: 571e 3dbf 67dc 09be 30de 933f fe43 ee3e
000001e0: c4f9 28be 3965 f73c 6365 d3bf 440a ce3e
000001f0: a039 433e 0101 c2bb 9d51 12be c730 24be
00000200: 74a1 8c3d e349 33c0 66aa 65bd 6e12 66be
00000210: 11d0 dfbf 1b56 6bbe c192 9bbc 2410 3abe
00000220: 2839 ce3d 0a37 203f 66b7 3fbe 0823 3f3d
00000230: 4000 f33d d7ab 6abe 6ebd 5dbc 7766 16be
00000240: c696 5abd 6821 6dbe e845 eb3e dfc0 f83d
00000250: f64c 6f3d 13e3 98bf 9a64 83bc 5944 3b3e
00000260: 9955 f2bf b764 63bd 19d0 37bf 6740 a93f
00000270: 991a 5fbf 5e33 323e 18d8 9d3e b6ed 02be
00000280: 0ca8 1d3e 9663 babe ea95 f5bf 9566 d3bd
00000290: 0251 1e3e 3460 85be 3cca ab3e 80ae cbbf
000002a0: 7b6a 483e 2c61 f8bc 5b01 d73d 54ae 403f
000002b0: 9d63 5a3f a11f 4bbd 2da1 073e 71d1 42be
000002c0: 51d2 863f fa74 3b3e 0842 c23f 532e 92bb
000002d0: 8929 07c0 6832 823f d3c8 c33d 821c 1d40
000002e0: 9dd0 633d bade 0940 5552 a53e 7d8d a3bd
000002f0: 1753 05c0 38d4 e0bc cd04 01be 9033 0d3e
00000300: 8e3c fa3e aa8d 8bbf 07ce 7ebe 10c4 b2bd
00000310: 6b53 9f3e 17d9 53be db57 03c0 d4e4 44bf
00000320: 91e6 3f3f 1cbc 60bd 5d31 b0bd 36dc 2bbd
00000330: 614f b73d 6645 cebf 8439 293e b50c 463f
00000340: ee29 c0be 1003 1a3e 6024 eabc 79d5 bdbb
00000350: 9c5e b73e 22f1 5f3d da19 ed3e f7d2 fcbf
00000360: 88a1 a13f 04f4 8c3c 76e9 0e3e 8b42 77bf
00000370: 00a4 be3d 747a 7f3f b999 b7bf 4c75 c7bd
00000380: 3766 5ac0 f2d7 af3f 83c4 d1bd 142d 4c3f
00000390: b389 b7bf 7366 3d3e 2353 f3bd e46e 133f
000003a0: 38ef 5f3f 3e66 263f 52b3 383f 2e5b e23e
000003b0: c950 84be 6180 813f fed5 2c3d fef6 6bbf
000003c0: 73c1 76be 88c5 82bd ef28 18bd ab78 abbc
000003d0: 5154 c2bf b060 65bd bd54 cebe fee5 6cbd
000003e0: 847b 98bd e34d 0740 18da 063e e3a0 7c3f
000003f0: a3d9 b0bf 599a 0b3e c586 223d 05ea 0dbe
-0.15199357 -0.022495167 -0.19004035 -0.13286306 -0.12513985 0.6451219 -0.020330958 0.004788313
1.1291343 0.7361809 -2.3985925 0.9063837 -0.28164738 0.18054065 -0.05775798 -0.17326629
0.928218 -0.9848692 0.5340908 -0.5930613 -0.24006279 -0.4087193 0.14453396 -0.082103506
-0.3791449 0.41136363 0.24611387 0.0032050891 -0.1466741 -0.112996936 0.8950366 -3.2132044
-0.021858582 0.032769416 -0.18900734 0.15346657 -0.36878824 0.53682446 0.060879197 0.12936862
0.16246283 -1.9817989 -1.7340221 0.5420454 0.21234016 -1.0295146 0.058645766 0.07388227
-0.19823803 -0.20498656 0.21553256 0.0390803 -0.44670123 -0.8905319 -0.31180894 0.17857634
0.007792968 -0.14288677 -0.11768171 0.38803458 -0.32675222 -0.24649946 0.34742397 -0.06458331
-1.7387496 -0.06713041 1.2666011 -0.07724791 -2.4140933 -0.04246275 -0.063412964 -0.14002287
-0.32419747 0.057264272 -0.1514886 0.06476396 -0.24413523 -1.7243077 -0.22957425 -0.08095941
-0.07483956 -0.058540445 -0.12870523 -0.037659436 0.779341 -0.061811652 -0.4157866 0.09219724
0.7322373 0.54914117 -0.106428 -0.22518046 0.14371563 0.643831 0.028604647 0.2312825
-0.008735041 0.09239925 0.07644628 0.66308105 0.62755686 -0.078653134 -3.4157557 -0.07920021
0.011489795 0.14588012 0.1995525 -0.07771175 1.07332 -0.08071502 -1.3632591 -0.1087251
-0.07113254 0.5897411 -0.13432539 -0.0843999 -0.7387442 -0.13462983 1.1552181 0.4653625
-0.16501528 0.030199634 -1.6515316 0.40242207 0.19064951 -0.00592053 -0.14288945 -0.16034232
0.06866732 -2.8013847 -0.056070708 -0.22467968 -1.7485372 -0.22982065 -0.018990876 -0.1817022
0.100694954 0.6258398 -0.18722305 0.046664268 0.11865282 -0.22917114 -0.013533933 -0.14687525
-0.053366445 -0.23157275 0.45951772 0.12146162 0.058423005 -1.1944298 -0.016039182 0.18287791
-1.8932372 -0.05551597 -0.71801907 1.3222779 -0.8714996 0.17402408 0.3082893 -0.12785992
0.15396136 -0.36404103 -1.9186375 -0.103223 0.1546059 -0.2604996 0.3355273 -1.5912628
0.19571869 -0.030319773 0.104983054 0.75266004 0.8530825 -0.04959071 0.13245077 -0.19025208
1.0532933 0.18306342 1.5176401 -0.0044610887 -2.11191 1.0171633 0.095597886 2.454865
0.05561887 2.1542192 0.32289377 -0.07985971 -2.0831964 -0.027444944 -0.12599488 0.13789201
0.48874325 -1.0902607 -0.2488328 -0.08728802 0.3111833 -0.20688282 -2.0522373 -0.76911664
0.7496119 -0.054866895 -0.08603165 -0.041958056 0.08950687 -1.6114929 0.16525847 0.7736314
-0.3753199 0.15040231 -0.028581798 -0.00579327 0.3581437 0.05467332 0.46308786 -1.9751881
1.262742 0.0172062 0.13956246 -0.9658591 0.09308624 0.99796224 -1.4343787 -0.097391695
-3.4124887 1.3737776 -0.1024256 0.79756284 -1.4338897 0.18496113 -0.118810914 0.5759108
0.87474394 0.6499976 0.7214862 0.4421019 -0.25842884 1.0117303 0.042196266 -0.92173755
-0.24097233 -0.06385332 -0.037148412 -0.020931562 -1.5181981 -0.05600041 -0.40299025 -0.057836525
-0.07445434 2.1141288 0.13169134 0.98682994 -1.3816417 0.13633098 0.039679307 -0.13858803

CFC.3.weight f4 [2, 384]
00000000: 799e d73c faa4 6a3c e37a 6abe 3fe8 65be
00000010: f4ce dbbc 3d2d 45bf 5991 f3bc 7ad8 a5bb
00000020: b6e0 94bf 2d51 8cbf 6635 69bd f852 25bf
00000030: 102f d9bc 573e 853e 027d 5b3c 1c84 dfbc
00000040: 7985 46bf 9c6c 22c0 b44e 0ebf a8f4 a7bc
00000050: afed 2dbe 06d7 2c3d 0299 33be 65f4 18be
00000060: 50ed b63d efef 89be 2bd8 8cbe 0a6c d23d
00000070: 249b 7bbe e231 6abc 3f97 e63f b176 db3e
00000080: 4c4a 56bd 752b af3f cc7a 573c 58a3 62be
00000090: 571a 983d fe47 23bf b745 95bb af31 abbe
000000a0: 617a 7c3e 897f be3d c1aa 7fbd 4e0e 89bf
000000b0: 8cf6 8a3f 2979 20c0 102a 8d3c 79b6 63be
000000c0: 5ef1 3dbd 46ae 10bf 8bd9 86be d3c1 c1be
000000d0: 03ec 023e 05a4 dd3d a231 f6bf c7c7 8bbd
000000e0: 7f5d 403c a4f2 ac3d 12e2 90bb a65f c13d
000000f0: 3bb7 90bf 7863 1fbe 8457 a9bf af00 43be
00000100: 40e7 d13d ab84 9bba dc4f 39bf dac0 173c
00000110: 1d3c 343e fc63 23be a293 0ebf 0e01 bbbc
00000120: 6a13 5a3e 76d7 18be ecce d5be dbf7 63bd
00000130: f71d f13b 1824 523d 607a 883c ddde a0bc
00000140: 322d 1d3d d6a9 c5bd 5b8b ecbc 3a2b ee3b
00000150: 3968 b5bf 0c45 22be 772e 9b3c 47da 84bc
00000160: e9b9 94be 7baa 893c c2eb 07bd 4596 713d
00000170: dd58 ebbe 9ced 82bf ed5e 19be be05 17c0
00000180: e190 8f3d 94f5 66bd bcbe e2be 66eb 5abf
00000190: 9ad0 e43f 594b 3ebe 1a8e ec3e 9cd4 09bf
000001a0: cb2b 4ebe 8d37 a33c 791c 0abf 8d5f 89be
000001b0: fd01 36bf 6679 9dbe 5084 3b3d df6f d8bd
000001c0: 0fe1 aebe a7ee a93f d1fb f7bc 539e acbc
000001d0: ea01 813d d2ef 2a3a 1282 73bf 029d 9bbf
000001e0: 84a4 38bc ca64 dabe 7b04 5cbd e37f 28bd
000001f0: de17 31bf 0e3c 35bd b4ec 8e3c 5968 3cbd
00000200: 7818 81bc 92cd 293e ac48 c3bf d196 c8bd
00000210: 9e43 373e 9551 5e3d c91b 1f3c df19 4dbd
00000220: ec11 36be 6985 25bf e0d1 743d 31a9 1bbe
00000230: 1ce9 f83c fb67 4cbd 8125 ccbe a8a8 95bd
00000240: a9af 3ebd fb3d 2e3d 7548 923e b940 cabc
00000250: b6cc 253b ae03 583e 26c1 85bd 9b19 58bf
00000260: 5ddb 2e3b 52a8 a33e 15ca 2dc0 ef02 3ebf
00000270: a456 05c0 2475 14bd 60a1 46be fc36 bbbc
00000280: 329d 58be 96fe 583d af7d 283d 3b86 e4bc
00000290: ad41 dbbe e220 45bb 5695 66be 36d2 b13c
000002a0: 09e7 c33f 6fee aabe 9ee8 53bf 7039 2cbf
000002b0: 43be 6dbf 33fa 12bd 53d9 0f3b f370 a4bc
000002c0: 026f febe 9bd4 143f 5a0a 97bf c710 8cbe
000002d0: 6a61 963d e0e6 adbe f92f 0dbc 5338 85bf
000002e0: fd42 17c0 aa12 8cbf e362 99bf 5045 e0bd
000002f0: 2476 ac3c 7dfd bd3c f873 dcbe 0b08 99be
00000300: 1011 9d3d c453 9cbf 5b59 223d 1faa cabb
00000310: 0fa0 79bf 291f 0cbe 5177 163e de9c 11c0
00000320: 014b 59bf 91c7 e5bb 2ebd e5be d27e 69be
00000330: 6266 d6bc c33a 043e c42d 88be d6e9 86bf
00000340: 06e6 093d befd abbe fc28 b4bd 42ba 3cbe
00000350: 7055 f3be fd2e 9fbd 1540 253d 266e 083e
00000360: 84ae 4ebf 4908 97bd 3ec9 49be 6af2 763e
00000370: 8522 40bd 01b7 9ebf 2391 afbd 7825 90bb
00000380: 8989 cd3e 358e f9be 4c97 a0bc adff f9be
00000390: 2d32 753d 6731 48bf 0c62 47be 3e77 11bd
000003a0: b649 58bf 1eef a0bf 49b4 a5bf f24e 3dbe
000003b0: 6fb8 4f3c 1f6b 90bf 4135 2e3c 943c 10c0
000003c0: ecdb 373d a965 23be ad67 99bc 4c59 50be
000003d0: 1a4f 823e 79bf 8ebc b5ec aa3d 4d90 a9be
000003e0: d911 d5be 5a01 6fbf 2ae4 67be f024 bbbf
000003f0: cb6a f93d ff28 30bf 4747 26bd 450d 1bbc
0.026320683 0.01432156 -0.2289844 -0.22451876 -0.026832081 -0.77022153 -0.029732393 -0.0050612064
-1.1631076 -1.0962273 -0.05693569 -0.64579725 -0.026511699 0.26024124 0.013396503 -0.027284674
-0.77547413 -2.537879 -0.5558884 -0.020502403 -0.169852 0.04219725 -0.17538837 -0.14936979
0.089319825 -0.26940867 -0.27508673 0.10274513 -0.245709 -0.01429412 1.8014907 0.42863992
-0.05231695 1.3685137 0.013151836 -0.22132623 0.07426899 -0.63781726 -0.00455543 -0.33436343
0.24656059 0.09301669 -0.062418703 -1.070749 1.085649 -2.507395 0.017231971 -0.22237577
-0.046372764 -0.5651592 -0.26337847 -0.3784319 0.12785344 0.108223 -1.9233897 -0.06825214
0.011741041 0.084447175 -0.004421481 0.094420716 -1.1305918 -0.15565288 -1.3229833 -0.1904323
0.102491856 -0.00118651 -0.7238748 0.009262288 0.17601056 -0.1595611 -0.5569402 -0.022827651
0.21296468 -0.14925942 -0.4175943 -0.055656295 0.0073583084 0.051303953 0.016659915 -0.01963752
0.03837318 -0.09651534 -0.028875044 0.0072683366 -1.4172431 -0.15846652 0.018943055 -0.016217364
-0.29048088 0.016804924 -0.03318382 0.0589812 -0.45966235 -1.0228763 -0.14977618 -2.3597255
0.07010055 -0.056386545 -0.44286144 -0.8551544 1.787616 -0.1858343 0.46202165 -0.5384004
-0.20133893 0.01992395 -0.53949696 -0.26830712 -0.71096784 -0.30756682 0.04578048 -0.10568213
-0.3415608 1.3275956 -0.030271443 -0.021071589 0.06299193 0.00065207214 -0.95120347 -1.215729
-0.011269692 -0.4265502 -0.05371521 -0.041137587 -0.69177043 -0.044246726 0.017446853 -0.04599795
-0.015758738 0.16582325 -1.5256553 -0.09794391 0.17896888 0.05427702 0.009711214 -0.0500735
-0.17780274 -0.6465669 0.059770465 -0.1520126 0.030384593 -0.04990385 -0.39872363 -0.07307559
-0.04655424 0.042539578 0.28570905 -0.024689065 0.002529902 0.21095154 -0.06530981 -0.8441407
0.0026681044 0.31964356 -2.715459 -0.74223226 -2.0834131 -0.036244527 -0.19397497 -0.022853367
-0.21153715 0.052977167 0.041135486 -0.027896037 -0.42823544 -0.0030079414 -0.22517905 0.021706682
1.5304881 -0.33385035 -0.8277682 -0.6727514 -0.9286844 -0.03588314 0.0021949604 -0.02007339
-0.49694067 0.5813691 -1.1800034 -0.2735655 0.07342799 -0.33965206 -0.008617395 -1.0407814
-2.3634636 -1.0943196 -1.1983303 -0.1095072 0.021052428 0.023192162 -0.43057227 -0.2988895
0.0766927 -1.2213063 0.039635997 -0.006184831 -0.97509855 -0.13683762 0.14693953 -2.2751994
-0.8488007 -0.0070123156 -0.44870895 -0.22802284 -0.026171867 0.12913041 -0.26597416 -1.0540111
0.033666633 -0.33592027 -0.0879688 -0.18430427 -0.4752612 -0.07772634 0.040344317 0.13323268
-0.8073504 -0.07374627 -0.19705674 0.24115911 -0.04690792 -1.2399598 -0.085726045 -0.004398998
0.40143993 -0.48741308 -0.019603394 -0.48827878 0.059862304 -0.7820038 -0.19470996 -0.03551411
-0.84487474 -1.2572973 -1.2945644 -0.18487146 0.01267825 -1.1282691 0.010632814 -2.2536974
0.04488747 -0.15956749 -0.018726194 -0.20346564 0.25450975 -0.017425286 0.083459295 -0.33117905
-0.4161518 -0.9336144 -0.22645631 -1.4620647 0.12178572 -0.68812555 -0.04059532 -0.009463613

CFC.3.bias f4 [2]
00000000: f894 f53f 4159 3c3f
1.9186087 0.7357369
